…
  (label_extract): SyllableScoreFeats(win_length=2048, hop_length=256, center=True, )
  (pitch_extract): Dio()
  (duration_extract): SyllableScoreFeats(win_length=2048, hop_length=256, center=True, )
  (svs): VITS(
    (generator): VISingerGenerator(
      (text_encoder): TextEncoder(
        (encoder): Encoder(
          (embed): Sequential(
            (0): RelPositionalEncoding(
              (dropout): Dropout(p=0.0, inplace=False)
            )
          )
          (encoders): MultiSequential(
            (0): EncoderLayer(
              (self_attn): RelPositionMultiHeadedAttention(
                (linear_q): Linear(in_features=192, out_features=192, bias=True)
                (linear_k): Linear(in_features=192, out_features=192, bias=True)
                (linear_v): Linear(in_features=192, out_features=192, bias=True)
                (linear_out): Linear(in_features=192, out_features=192, bias=True)
                (dropout): Dropout(p=0.1, inplace=False)
                (q_norm): Identity()
                (k_norm): Identity()
                (linear_pos): Linear(in_features=192, out_features=192, bias=False)
              )
              (feed_forward): MultiLayeredConv1d(
                (w_1): Conv1d(192, 768, kernel_size=(3,), stride=(1,), padding=(1,))
                (w_2): Conv1d(768, 192, kernel_size=(3,), stride=(1,), padding=(1,))
                (dropout): Dropout(p=0.1, inplace=False)
              )
              (feed_forward_macaron): MultiLayeredConv1d(
                (w_1): Conv1d(192, 768, kernel_size=(3,), stride=(1,), padding=(1,))
                (w_2): Conv1d(768, 192, kernel_size=(3,), stride=(1,), padding=(1,))
                (dropout): Dropout(p=0.1, inplace=False)
              )
              (norm_ff): LayerNorm((192,), eps=1e-12, elementwise_affine=True)
              (norm_mha): LayerNorm((192,), eps=1e-12, elementwise_affine=True)
              (norm_ff_macaron): LayerNorm((192,), eps=1e-12, elementwise_affine=True)
              (dropout): Dropout(p=0.1, inplace=False)
            )
            (1): EncoderLayer(
              (self_attn): RelPositionMultiHeadedAttention(
                (linear_q): Linear(in_features=192, out_features=192, bias=True)
                (linear_k): Linear(in_features=192, out_features=192, bias=True)
                (linear_v): Linear(in_features=192, out_features=192, bias=True)
                (linear_out): Linear(in_features=192, out_features=192, bias=True)
                (dropout): Dropout(p=0.1, inplace=False)
                (q_norm): Identity()
                (k_norm): Identity()
                (linear_pos): Linear(in_features=192, out_features=192, bias=False)
              )
              (feed_forward): MultiLayeredConv1d(
                (w_1): Conv1d(192, 768, kernel_size=(3,), stride=(1,), padding=(1,))
                (w_2): Conv1d(768, 192, kernel_size=(3,), stride=(1,), padding=(1,))
                (dropout): Dropout(p=0.1, inplace=False)
              )
              (feed_forward_macaron): MultiLayeredConv1d(
                (w_1): Conv1d(192, 768, kernel_size=(3,), stride=(1,), padding=(1,))
                (w_2): Conv1d(768, 192, kernel_size=(3,), stride=(1,), padding=(1,))
                (dropout): Dropout(p=0.1, inplace=False)
              )
              (norm_ff): LayerNorm((192,), eps=1e-12, elementwise_affine=True)
              (norm_mha): LayerNorm((192,), eps=1e-12, elementwise_affine=True)
              (norm_ff_macaron): LayerNorm((192,), eps=1e-12, elementwise_affine=True)
              (dropout): Dropout(p=0.1, inplace=False)
            )
            (2): EncoderLayer(
              (self_attn): RelPositionMultiHeadedAttention(
                (linear_q): Linear(in_features=192, out_features=192, bias=True)
                (linear_k): Linear(in_features=192, out_features=192, bias=True)
                (linear_v): Linear(in_features=192, out_features=192, bias=True)
                (linear_out): Linear(in_features=192, out_features=192, bias=True)
                (dropout): Dropout(p=0.1, inplace=False)
                (q_norm): Identity()
                (k_norm): Identity()
                (linear_pos): Linear(in_features=192, out_features=192, bias=False)
              )
              (feed_forward): MultiLayeredConv1d(
                (w_1): Conv1d(192, 768, kernel_size=(3,), stride=(1,), padding=(1,))
                (w_2): Conv1d(768, 192, kernel_size=(3,), stride=(1,), padding=(1,))
                (dropout): Dropout(p=0.1, inplace=False)
              )
              (feed_forward_macaron): MultiLayeredConv1d(
                (w_1): Conv1d(192, 768, kernel_size=(3,), stride=(1,), padding=(1,))
                (w_2): Conv1d(768, 192, kernel_size=(3,), stride=(1,), padding=(1,))
                (dropout): Dropout(p=0.1, inplace=False)
              )
              (norm_ff): LayerNorm((192,), eps=1e-12, elementwise_affine=True)
              (norm_mha): LayerNorm((192,), eps=1e-12, elementwise_affine=True)
              (norm_ff_macaron): LayerNorm((192,), eps=1e-12, elementwise_affine=True)
              (dropout): Dropout(p=0.1, inplace=False)
            )
            (3): EncoderLayer(
              (self_attn): RelPositionMultiHeadedAttention(
                (linear_q): Linear(in_features=192, out_features=192, bias=True)
                (linear_k): Linear(in_features=192, out_features=192, bias=True)
                (linear_v): Linear(in_features=192, out_features=192, bias=True)
                (linear_out): Linear(in_features=192, out_features=192, bias=True)
                (dropout): Dropout(p=0.1, inplace=False)
                (q_norm): Identity()
                (k_norm): Identity()
                (linear_pos): Linear(in_features=192, out_features=192, bias=False)
              )
              (feed_forward): MultiLayeredConv1d(
                (w_1): Conv1d(192, 768, kernel_size=(3,), stride=(1,), padding=(1,))
                (w_2): Conv1d(768, 192, kernel_size=(3,), stride=(1,), padding=(1,))
                (dropout): Dropout(p=0.1, inplace=False)
              )
              (feed_forward_macaron): MultiLayeredConv1d(
                (w_1): Conv1d(192, 768, kernel_size=(3,), stride=(1,), padding=(1,))
                (w_2): Conv1d(768, 192, kernel_size=(3,), stride=(1,), padding=(1,))
                (dropout): Dropout(p=0.1, inplace=False)
              )
              (norm_ff): LayerNorm((192,), eps=1e-12, elementwise_affine=True)
              (norm_mha): LayerNorm((192,), eps=1e-12, elementwise_affine=True)
              (norm_ff_macaron): LayerNorm((192,), eps=1e-12, elementwise_affine=True)
              (dropout): Dropout(p=0.1, inplace=False)
            )
            (4): EncoderLayer(
              (self_attn): RelPositionMultiHeadedAttention(
                (linear_q): Linear(in_features=192, out_features=192, bias=True)
                (linear_k): Linear(in_features=192, out_features=192, bias=True)
                (linear_v): Linear(in_features=192, out_features=192, bias=True)
                (linear_out): Linear(in_features=192, out_features=192, bias=True)
                (dropout): Dropout(p=0.1, inplace=False)
                (q_norm): Identity()
                (k_norm): Identity()
                (linear_pos): Linear(in_features=192, out_features=192, bias=False)
              )
              (feed_forward): MultiLayeredConv1d(
                (w_1): Conv1d(192, 768, kernel_size=(3,), stride=(1,), padding=(1,))
                (w_2): Conv1d(768, 192, kernel_size=(3,), stride=(1,), padding=(1,))
                (dropout): Dropout(p=0.1, inplace=False)
              )
              (feed_forward_macaron): MultiLayeredConv1d(
                (w_1): Conv1d(192, 768, kernel_size=(3,), stride=(1,), padding=(1,))
                (w_2): Conv1d(768, 192, kernel_size=(3,), stride=(1,), padding=(1,))
                (dropout): Dropout(p=0.1, inplace=False)
              )
              (norm_ff): LayerNorm((192,), eps=1e-12, elementwise_affine=True)
              (norm_mha): LayerNorm((192,), eps=1e-12, elementwise_affine=True)
              (norm_ff_macaron): LayerNorm((192,), eps=1e-12, elementwise_affine=True)
              (dropout): Dropout(p=0.1, inplace=False)
            )
            (5): EncoderLayer(
              (self_attn): RelPositionMultiHeadedAttention(
                (linear_q): Linear(in_features=192, out_features=192, bias=True)
                (linear_k): Linear(in_features=192, out_features=192, bias=True)
                (linear_v): Linear(in_features=192, out_features=192, bias=True)
                (linear_out): Linear(in_features=192, out_features=192, bias=True)
                (dropout): Dropout(p=0.1, inplace=False)
                (q_norm): Identity()
                (k_norm): Identity()
                (linear_pos): Linear(in_features=192, out_features=192, bias=False)
              )
              (feed_forward): MultiLayeredConv1d(
                (w_1): Conv1d(192, 768, kernel_size=(3,), stride=(1,), padding=(1,))
                (w_2): Conv1d(768, 192, kernel_size=(3,), stride=(1,), padding=(1,))
                (dropout): Dropout(p=0.1, inplace=False)
              )
              (feed_forward_macaron): MultiLayeredConv1d(
                (w_1): Conv1d(192, 768, kernel_size=(3,), stride=(1,), padding=(1,))
                (w_2): Conv1d(768, 192, kernel_size=(3,), stride=(1,), padding=(1,))
                (dropout): Dropout(p=0.1, inplace=False)
              )
              (norm_ff): LayerNorm((192,), eps=1e-12, elementwise_affine=True)
              (norm_mha): LayerNorm((192,), eps=1e-12, elementwise_affine=True)
              (norm_ff_macaron): LayerNorm((192,), eps=1e-12, elementwise_affine=True)
              (dropout): Dropout(p=0.1, inplace=False)
            )
          )
          (after_norm): LayerNorm((192,), eps=1e-12, elementwise_affine=True)
        )
        (emb_phone): Embedding(62, 256)
        (emb_pitch): Embedding(129, 128)
        (emb_slur): Embedding(2, 64)
        (emb_dur): Linear(in_features=1, out_features=64, bias=True)
        (pre_net): Linear(in_features=512, out_features=192, bias=True)
        (pre_dur_net): Linear(in_features=512, out_features=192, bias=True)
        (proj): Conv1d(192, 192, kernel_size=(1,), stride=(1,))
        (proj_pitch): Conv1d(128, 192, kernel_size=(1,), stride=(1,))
      )
      (decoder): VISinger2VocoderGenerator(
        (input_conv): Conv1d(192, 512, kernel_size=(7,), stride=(1,), padding=(3,))
        (downs): ModuleList(
          (0-1): 2 x Conv1d(66, 66, kernel_size=(4,), stride=(2,), padding=(2,))
          (2-3): 2 x Conv1d(66, 66, kernel_size=(16,), stride=(8,), padding=(8,))
        )
        (blocks_downs): ModuleList(
          (0-3): 4 x ResidualBlock(
            (convs1): ModuleList(
              (0): Sequential(
                (0): LeakyReLU(negative_slope=0.1)
                (1): Conv1d(66, 66, kernel_size=(3,), stride=(1,), padding=(1,))
              )
              (1): Sequential(
                (0): LeakyReLU(negative_slope=0.1)
                (1): Conv1d(66, 66, kernel_size=(3,), stride=(1,), padding=(3,), dilation=(3,))
              )
            )
          )
        )
        (concat_pre): Conv1d(578, 512, kernel_size=(3,), stride=(1,), padding=(1,))
        (concat_conv): ModuleList(
          (0): Conv1d(322, 256, kernel_size=(3,), stride=(1,), padding=(1,))
          (1): Conv1d(194, 128, kernel_size=(3,), stride=(1,), padding=(1,))
          (2): Conv1d(130, 64, kernel_size=(3,), stride=(1,), padding=(1,))
          (3): Conv1d(98, 32, kernel_size=(3,), stride=(1,), padding=(1,))
        )
        (upsamples): ModuleList(
          (0): Sequential(
            (0): LeakyReLU(negative_slope=0.1)
            (1): ConvTranspose1d(512, 256, kernel_size=(16,), stride=(8,), padding=(4,))
          )
          (1): Sequential(
            (0): LeakyReLU(negative_slope=0.1)
            (1): ConvTranspose1d(256, 128, kernel_size=(16,), stride=(8,), padding=(4,))
          )
          (2): Sequential(
            (0): LeakyReLU(negative_slope=0.1)
            (1): ConvTranspose1d(128, 64, kernel_size=(4,), stride=(2,), padding=(1,))
          )
          (3): Sequential(
            (0): LeakyReLU(negative_slope=0.1)
            (1): ConvTranspose1d(64, 32, kernel_size=(4,), stride=(2,), padding=(1,))
          )
        )
        (blocks): ModuleList(
          (0): ResidualBlock(
            (convs1): ModuleList(
              (0): Sequential(
                (0): LeakyReLU(negative_slope=0.1)
                (1): Conv1d(256, 256, kernel_size=(3,), stride=(1,), padding=(1,))
              )
              (1): Sequential(
                (0): LeakyReLU(negative_slope=0.1)
                (1): Conv1d(256, 256, kernel_size=(3,), stride=(1,), padding=(3,), dilation=(3,))
              )
              (2): Sequential(
                (0): LeakyReLU(negative_slope=0.1)
                (1): Conv1d(256, 256, kernel_size=(3,), stride=(1,), padding=(5,), dilation=(5,))
              )
            )
            (convs2): ModuleList(
              (0-2): 3 x Sequential(
                (0): LeakyReLU(negative_slope=0.1)
                (1): Conv1d(256, 256, kernel_size=(3,), stride=(1,), padding=(1,))
              )
            )
          )
          (1): ResidualBlock(
            (convs1): ModuleList(
              (0): Sequential(
                (0): LeakyReLU(negative_slope=0.1)
                (1): Conv1d(256, 256, kernel_size=(7,), stride=(1,), padding=(3,))
              )
              (1): Sequential(
                (0): LeakyReLU(negative_slope=0.1)
                (1): Conv1d(256, 256, kernel_size=(7,), stride=(1,), padding=(9,), dilation=(3,))
              )
              (2): Sequential(
                (0): LeakyReLU(negative_slope=0.1)
                (1): Conv1d(256, 256, kernel_size=(7,), stride=(1,), padding=(15,), dilation=(5,))
              )
            )
            (convs2): ModuleList(
              (0-2): 3 x Sequential(
                (0): LeakyReLU(negative_slope=0.1)
                (1): Conv1d(256, 256, kernel_size=(7,), stride=(1,), padding=(3,))
              )
            )
          )
          (2): ResidualBlock(
            (convs1): ModuleList(
              (0): Sequential(
                (0): LeakyReLU(negative_slope=0.1)
                (1): Conv1d(256, 256, kernel_size=(11,), stride=(1,), padding=(5,))
              )
              (1): Sequential(
                (0): LeakyReLU(negative_slope=0.1)
                (1): Conv1d(256, 256, kernel_size=(11,), stride=(1,), padding=(15,), dilation=(3,))
              )
              (2): Sequential(
                (0): LeakyReLU(negative_slope=0.1)
                (1): Conv1d(256, 256, kernel_size=(11,), stride=(1,), padding=(25,), dilation=(5,))
              )
            )
            (convs2): ModuleList(
              (0-2): 3 x Sequential(
                (0): LeakyReLU(negative_slope=0.1)
                (1): Conv1d(256, 256, kernel_size=(11,), stride=(1,), padding=(5,))
              )
            )
          )
          (3): ResidualBlock(
            (convs1): ModuleList(
              (0): Sequential(
                (0): LeakyReLU(negative_slope=0.1)
                (1): Conv1d(128, 128, kernel_size=(3,), stride=(1,), padding=(1,))
              )
              (1): Sequential(
                (0): LeakyReLU(negative_slope=0.1)
                (1): Conv1d(128, 128, kernel_size=(3,), stride=(1,), padding=(3,), dilation=(3,))
              )
              (2): Sequential(
                (0): LeakyReLU(negative_slope=0.1)
                (1): Conv1d(128, 128, kernel_size=(3,), stride=(1,), padding=(5,), dilation=(5,))
              )
            )
            (convs2): ModuleList(
              (0-2): 3 x Sequential(
                (0): LeakyReLU(negative_slope=0.1)
                (1): Conv1d(128, 128, kernel_size=(3,), stride=(1,), padding=(1,))
              )
            )
          )
          (4): ResidualBlock(
            (convs1): ModuleList(
              (0): Sequential(
                (0): LeakyReLU(negative_slope=0.1)
                (1): Conv1d(128, 128, kernel_size=(7,), stride=(1,), padding=(3,))
              )
              (1): Sequential(
                (0): LeakyReLU(negative_slope=0.1)
                (1): Conv1d(128, 128, kernel_size=(7,), stride=(1,), padding=(9,), dilation=(3,))
              )
              (2): Sequential(
                (0): LeakyReLU(negative_slope=0.1)
                (1): Conv1d(128, 128, kernel_size=(7,), stride=(1,), padding=(15,), dilation=(5,))
              )
            )
            (convs2): ModuleList(
              (0-2): 3 x Sequential(
                (0): LeakyReLU(negative_slope=0.1)
                (1): Conv1d(128, 128, kernel_size=(7,), stride=(1,), padding=(3,))
              )
            )
          )
          (5): ResidualBlock(
            (convs1): ModuleList(
              (0): Sequential(
                (0): LeakyReLU(negative_slope=0.1)
                (1): Conv1d(128, 128, kernel_size=(11,), stride=(1,), padding=(5,))
              )
              (1): Sequential(
                (0): LeakyReLU(negative_slope=0.1)
                (1): Conv1d(128, 128, kernel_size=(11,), stride=(1,), padding=(15,), dilation=(3,))
              )
              (2): Sequential(
                (0): LeakyReLU(negative_slope=0.1)
                (1): Conv1d(128, 128, kernel_size=(11,), stride=(1,), padding=(25,), dilation=(5,))
              )
            )
            (convs2): ModuleList(
              (0-2): 3 x Sequential(
                (0): LeakyReLU(negative_slope=0.1)
                (1): Conv1d(128, 128, kernel_size=(11,), stride=(1,), padding=(5,))
              )
            )
          )
          (6): ResidualBlock(
            (convs1): ModuleList(
              (0): Sequential(
                (0): LeakyReLU(negative_slope=0.1)
                (1): Conv1d(64, 64, kernel_size=(3,), stride=(1,), padding=(1,))
              )
              (1): Sequential(
                (0): LeakyReLU(negative_slope=0.1)
                (1): Conv1d(64, 64, kernel_size=(3,), stride=(1,), padding=(3,), dilation=(3,))
              )
              (2): Sequential(
                (0): LeakyReLU(negative_slope=0.1)
                (1): Conv1d(64, 64, kernel_size=(3,), stride=(1,), padding=(5,), dilation=(5,))
              )
            )
            (convs2): ModuleList(
              (0-2): 3 x Sequential(
                (0): LeakyReLU(negative_slope=0.1)
                (1): Conv1d(64, 64, kernel_size=(3,), stride=(1,), padding=(1,))
              )
            )
          )
          (7): ResidualBlock(
            (convs1): ModuleList(
              (0): Sequential(
                (0): LeakyReLU(negative_slope=0.1)
                (1): Conv1d(64, 64, kernel_size=(7,), stride=(1,), padding=(3,))
              )
              (1): Sequential(
                (0): LeakyReLU(negative_slope=0.1)
                (1): Conv1d(64, 64, kernel_size=(7,), stride=(1,), padding=(9,), dilation=(3,))
              )
              (2): Sequential(
                (0): LeakyReLU(negative_slope=0.1)
                (1): Conv1d(64, 64, kernel_size=(7,), stride=(1,), padding=(15,), dilation=(5,))
              )
            )
            (convs2): ModuleList(
              (0-2): 3 x Sequential(
                (0): LeakyReLU(negative_slope=0.1)
                (1): Conv1d(64, 64, kernel_size=(7,), stride=(1,), padding=(3,))
              )
            )
          )
          (8): ResidualBlock(
            (convs1): ModuleList(
              (0): Sequential(
                (0): LeakyReLU(negative_slope=0.1)
                (1): Conv1d(64, 64, kernel_size=(11,), stride=(1,), padding=(5,))
              )
              (1): Sequential(
                (0): LeakyReLU(negative_slope=0.1)
                (1): Conv1d(64, 64, kernel_size=(11,), stride=(1,), padding=(15,), dilation=(3,))
              )
              (2): Sequential(
                (0): LeakyReLU(negative_slope=0.1)
                (1): Conv1d(64, 64, kernel_size=(11,), stride=(1,), padding=(25,), dilation=(5,))
              )
            )
            (convs2): ModuleList(
              (0-2): 3 x Sequential(
                (0): LeakyReLU(negative_slope=0.1)
                (1): Conv1d(64, 64, kernel_size=(11,), stride=(1,), padding=(5,))
              )
            )
          )
          (9): ResidualBlock(
            (convs1): ModuleList(
              (0): Sequential(
                (0): LeakyReLU(negative_slope=0.1)
                (1): Conv1d(32, 32, kernel_size=(3,), stride=(1,), padding=(1,))
              )
              (1): Sequential(
                (0): LeakyReLU(negative_slope=0.1)
                (1): Conv1d(32, 32, kernel_size=(3,), stride=(1,), padding=(3,), dilation=(3,))
              )
              (2): Sequential(
                (0): LeakyReLU(negative_slope=0.1)
                (1): Conv1d(32, 32, kernel_size=(3,), stride=(1,), padding=(5,), dilation=(5,))
              )
            )
            (convs2): ModuleList(
              (0-2): 3 x Sequential(
                (0): LeakyReLU(negative_slope=0.1)
                (1): Conv1d(32, 32, kernel_size=(3,), stride=(1,), padding=(1,))
              )
            )
          )
          (10): ResidualBlock(
            (convs1): ModuleList(
              (0): Sequential(
                (0): LeakyReLU(negative_slope=0.1)
                (1): Conv1d(32, 32, kernel_size=(7,), stride=(1,), padding=(3,))
              )
              (1): Sequential(
                (0): LeakyReLU(negative_slope=0.1)
                (1): Conv1d(32, 32, kernel_size=(7,), stride=(1,), padding=(9,), dilation=(3,))
              )
              (2): Sequential(
                (0): LeakyReLU(negative_slope=0.1)
                (1): Conv1d(32, 32, kernel_size=(7,), stride=(1,), padding=(15,), dilation=(5,))
              )
            )
            (convs2): ModuleList(
              (0-2): 3 x Sequential(
                (0): LeakyReLU(negative_slope=0.1)
                (1): Conv1d(32, 32, kernel_size=(7,), stride=(1,), padding=(3,))
              )
            )
          )
          (11): ResidualBlock(
            (convs1): ModuleList(
              (0): Sequential(
                (0): LeakyReLU(negative_slope=0.1)
                (1): Conv1d(32, 32, kernel_size=(11,), stride=(1,), padding=(5,))
              )
              (1): Sequential(
                (0): LeakyReLU(negative_slope=0.1)
                (1): Conv1d(32, 32, kernel_size=(11,), stride=(1,), padding=(15,), dilation=(3,))
              )
              (2): Sequential(
                (0): LeakyReLU(negative_slope=0.1)
                (1): Conv1d(32, 32, kernel_size=(11,), stride=(1,), padding=(25,), dilation=(5,))
              )
            )
            (convs2): ModuleList(
              (0-2): 3 x Sequential(
                (0): LeakyReLU(negative_slope=0.1)
                (1): Conv1d(32, 32, kernel_size=(11,), stride=(1,), padding=(5,))
              )
            )
          )
        )
        (output_conv): Sequential(
          (0): LeakyReLU(negative_slope=0.01)
          (1): Conv1d(32, 1, kernel_size=(7,), stride=(1,), padding=(3,))
          (2): Tanh()
        )
        (global_conv): Conv1d(512, 512, kernel_size=(1,), stride=(1,))
      )
      (dec_harm): Generator_Harm(
        (prenet): Conv1d(192, 192, kernel_size=(3,), stride=(1,), padding=(1,))
        (net): ConvReluNorm(
          (conv_layers): ModuleList(
            (0-7): 8 x Conv1d(192, 192, kernel_size=(3,), stride=(1,), padding=(1,))
          )
          (norm_layers): ModuleList(
            (0-7): 8 x LayerNorm()
          )
          (relu_drop): Sequential(
            (0): ReLU()
            (1): Dropout(p=0.1, inplace=False)
          )
          (proj): Conv1d(192, 192, kernel_size=(1,), stride=(1,))
        )
        (postnet): Conv1d(192, 65, kernel_size=(3,), stride=(1,), padding=(1,))
      )
      (dec_noise): Generator_Noise(
        (istft_pre): Conv1d(192, 192, kernel_size=(3,), stride=(1,), padding=(1,))
        (net): ConvReluNorm(
          (conv_layers): ModuleList(
            (0-7): 8 x Conv1d(192, 192, kernel_size=(3,), stride=(1,), padding=(1,))
          )
          (norm_layers): ModuleList(
            (0-7): 8 x LayerNorm()
          )
          (relu_drop): Sequential(
            (0): ReLU()
            (1): Dropout(p=0.1, inplace=False)
          )
          (proj): Conv1d(192, 192, kernel_size=(1,), stride=(1,))
        )
        (istft_amplitude): Conv1d(192, 1025, kernel_size=(1,), stride=(1,))
      )
      (sin_prenet): Conv1d(1, 66, kernel_size=(3,), stride=(1,), padding=(1,))
      (posterior_encoder): PosteriorEncoder(
        (input_conv): Conv1d(80, 192, kernel_size=(1,), stride=(1,))
        (encoder): WaveNet(
          (conv_layers): ModuleList(
            (0-7): 8 x ResidualBlock(
              (conv): Conv1d(192, 384, kernel_size=(3,), stride=(1,), padding=(1,))
              (conv1x1_glo): Conv1d1x1(512, 384, kernel_size=(1,), stride=(1,), bias=False)
              (conv1x1_out): Conv1d1x1(192, 384, kernel_size=(1,), stride=(1,))
            )
          )
        )
        (proj): Conv1d(192, 384, kernel_size=(1,), stride=(1,))
      )
      (f0_prenet): Conv1d(1, 194, kernel_size=(3,), stride=(1,), padding=(1,))
      (energy_prenet): Conv1d(1, 194, kernel_size=(3,), stride=(1,), padding=(1,))
      (mel_prenet): Conv1d(80, 194, kernel_size=(3,), stride=(1,), padding=(1,))
      (duration_predictor): DurationPredictor(
        (drop): Dropout(p=0.5, inplace=False)
        (conv_1): Conv1d(192, 256, kernel_size=(3,), stride=(1,), padding=(1,))
        (norm_1): LayerNorm((256,), eps=1e-12, elementwise_affine=True)
        (conv_2): Conv1d(256, 256, kernel_size=(3,), stride=(1,), padding=(1,))
        (norm_2): LayerNorm((256,), eps=1e-12, elementwise_affine=True)
        (conv_3): Conv1d(256, 256, kernel_size=(3,), stride=(1,), padding=(1,))
        (norm_3): LayerNorm((256,), eps=1e-12, elementwise_affine=True)
        (proj): Conv1d(256, 2, kernel_size=(1,), stride=(1,))
        (conv): Conv1d(512, 192, kernel_size=(1,), stride=(1,))
      )
      (lr): LengthRegulator()
      (f0_decoder): Decoder(
        (prenet): Conv1d(194, 192, kernel_size=(3,), stride=(1,), padding=(1,))
        (decoder): Encoder(
          (embed): Sequential(
            (0): RelPositionalEncoding(
              (dropout): Dropout(p=0.0, inplace=False)
            )
          )
          (encoders): MultiSequential(
            (0): EncoderLayer(
              (self_attn): RelPositionMultiHeadedAttention(
                (linear_q): Linear(in_features=192, out_features=192, bias=True)
                (linear_k): Linear(in_features=192, out_features=192, bias=True)
                (linear_v): Linear(in_features=192, out_features=192, bias=True)
                (linear_out): Linear(in_features=192, out_features=192, bias=True)
                (dropout): Dropout(p=0.1, inplace=False)
                (q_norm): Identity()
                (k_norm): Identity()
                (linear_pos): Linear(in_features=192, out_features=192, bias=False)
              )
              (feed_forward): MultiLayeredConv1d(
                (w_1): Conv1d(192, 768, kernel_size=(3,), stride=(1,), padding=(1,))
                (w_2): Conv1d(768, 192, kernel_size=(3,), stride=(1,), padding=(1,))
                (dropout): Dropout(p=0.1, inplace=False)
              )
              (feed_forward_macaron): MultiLayeredConv1d(
                (w_1): Conv1d(192, 768, kernel_size=(3,), stride=(1,), padding=(1,))
                (w_2): Conv1d(768, 192, kernel_size=(3,), stride=(1,), padding=(1,))
                (dropout): Dropout(p=0.1, inplace=False)
              )
              (norm_ff): LayerNorm((192,), eps=1e-12, elementwise_affine=True)
              (norm_mha): LayerNorm((192,), eps=1e-12, elementwise_affine=True)
              (norm_ff_macaron): LayerNorm((192,), eps=1e-12, elementwise_affine=True)
              (dropout): Dropout(p=0.1, inplace=False)
            )
            (1): EncoderLayer(
              (self_attn): RelPositionMultiHeadedAttention(
                (linear_q): Linear(in_features=192, out_features=192, bias=True)
                (linear_k): Linear(in_features=192, out_features=192, bias=True)
                (linear_v): Linear(in_features=192, out_features=192, bias=True)
                (linear_out): Linear(in_features=192, out_features=192, bias=True)
                (dropout): Dropout(p=0.1, inplace=False)
                (q_norm): Identity()
                (k_norm): Identity()
                (linear_pos): Linear(in_features=192, out_features=192, bias=False)
              )
              (feed_forward): MultiLayeredConv1d(
                (w_1): Conv1d(192, 768, kernel_size=(3,), stride=(1,), padding=(1,))
                (w_2): Conv1d(768, 192, kernel_size=(3,), stride=(1,), padding=(1,))
                (dropout): Dropout(p=0.1, inplace=False)
              )
              (feed_forward_macaron): MultiLayeredConv1d(
                (w_1): Conv1d(192, 768, kernel_size=(3,), stride=(1,), padding=(1,))
                (w_2): Conv1d(768, 192, kernel_size=(3,), stride=(1,), padding=(1,))
                (dropout): Dropout(p=0.1, inplace=False)
              )
              (norm_ff): LayerNorm((192,), eps=1e-12, elementwise_affine=True)
              (norm_mha): LayerNorm((192,), eps=1e-12, elementwise_affine=True)
              (norm_ff_macaron): LayerNorm((192,), eps=1e-12, elementwise_affine=True)
              (dropout): Dropout(p=0.1, inplace=False)
            )
            (2): EncoderLayer(
              (self_attn): RelPositionMultiHeadedAttention(
                (linear_q): Linear(in_features=192, out_features=192, bias=True)
                (linear_k): Linear(in_features=192, out_features=192, bias=True)
                (linear_v): Linear(in_features=192, out_features=192, bias=True)
                (linear_out): Linear(in_features=192, out_features=192, bias=True)
                (dropout): Dropout(p=0.1, inplace=False)
                (q_norm): Identity()
                (k_norm): Identity()
                (linear_pos): Linear(in_features=192, out_features=192, bias=False)
              )
              (feed_forward): MultiLayeredConv1d(
                (w_1): Conv1d(192, 768, kernel_size=(3,), stride=(1,), padding=(1,))
                (w_2): Conv1d(768, 192, kernel_size=(3,), stride=(1,), padding=(1,))
                (dropout): Dropout(p=0.1, inplace=False)
              )
              (feed_forward_macaron): MultiLayeredConv1d(
                (w_1): Conv1d(192, 768, kernel_size=(3,), stride=(1,), padding=(1,))
                (w_2): Conv1d(768, 192, kernel_size=(3,), stride=(1,), padding=(1,))
                (dropout): Dropout(p=0.1, inplace=False)
              )
              (norm_ff): LayerNorm((192,), eps=1e-12, elementwise_affine=True)
              (norm_mha): LayerNorm((192,), eps=1e-12, elementwise_affine=True)
              (norm_ff_macaron): LayerNorm((192,), eps=1e-12, elementwise_affine=True)
              (dropout): Dropout(p=0.1, inplace=False)
            )
            (3): EncoderLayer(
              (self_attn): RelPositionMultiHeadedAttention(
                (linear_q): Linear(in_features=192, out_features=192, bias=True)
                (linear_k): Linear(in_features=192, out_features=192, bias=True)
                (linear_v): Linear(in_features=192, out_features=192, bias=True)
                (linear_out): Linear(in_features=192, out_features=192, bias=True)
                (dropout): Dropout(p=0.1, inplace=False)
                (q_norm): Identity()
                (k_norm): Identity()
                (linear_pos): Linear(in_features=192, out_features=192, bias=False)
              )
              (feed_forward): MultiLayeredConv1d(
                (w_1): Conv1d(192, 768, kernel_size=(3,), stride=(1,), padding=(1,))
                (w_2): Conv1d(768, 192, kernel_size=(3,), stride=(1,), padding=(1,))
                (dropout): Dropout(p=0.1, inplace=False)
              )
              (feed_forward_macaron): MultiLayeredConv1d(
                (w_1): Conv1d(192, 768, kernel_size=(3,), stride=(1,), padding=(1,))
                (w_2): Conv1d(768, 192, kernel_size=(3,), stride=(1,), padding=(1,))
                (dropout): Dropout(p=0.1, inplace=False)
              )
              (norm_ff): LayerNorm((192,), eps=1e-12, elementwise_affine=True)
              (norm_mha): LayerNorm((192,), eps=1e-12, elementwise_affine=True)
              (norm_ff_macaron): LayerNorm((192,), eps=1e-12, elementwise_affine=True)
              (dropout): Dropout(p=0.1, inplace=False)
            )
            (4): EncoderLayer(
              (self_attn): RelPositionMultiHeadedAttention(
                (linear_q): Linear(in_features=192, out_features=192, bias=True)
                (linear_k): Linear(in_features=192, out_features=192, bias=True)
                (linear_v): Linear(in_features=192, out_features=192, bias=True)
                (linear_out): Linear(in_features=192, out_features=192, bias=True)
                (dropout): Dropout(p=0.1, inplace=False)
                (q_norm): Identity()
                (k_norm): Identity()
                (linear_pos): Linear(in_features=192, out_features=192, bias=False)
              )
              (feed_forward): MultiLayeredConv1d(
                (w_1): Conv1d(192, 768, kernel_size=(3,), stride=(1,), padding=(1,))
                (w_2): Conv1d(768, 192, kernel_size=(3,), stride=(1,), padding=(1,))
                (dropout): Dropout(p=0.1, inplace=False)
              )
              (feed_forward_macaron): MultiLayeredConv1d(
                (w_1): Conv1d(192, 768, kernel_size=(3,), stride=(1,), padding=(1,))
                (w_2): Conv1d(768, 192, kernel_size=(3,), stride=(1,), padding=(1,))
                (dropout): Dropout(p=0.1, inplace=False)
              )
              (norm_ff): LayerNorm((192,), eps=1e-12, elementwise_affine=True)
              (norm_mha): LayerNorm((192,), eps=1e-12, elementwise_affine=True)
              (norm_ff_macaron): LayerNorm((192,), eps=1e-12, elementwise_affine=True)
              (dropout): Dropout(p=0.1, inplace=False)
            )
            (5): EncoderLayer(
              (self_attn): RelPositionMultiHeadedAttention(
                (linear_q): Linear(in_features=192, out_features=192, bias=True)
                (linear_k): Linear(in_features=192, out_features=192, bias=True)
                (linear_v): Linear(in_features=192, out_features=192, bias=True)
                (linear_out): Linear(in_features=192, out_features=192, bias=True)
                (dropout): Dropout(p=0.1, inplace=False)
                (q_norm): Identity()
                (k_norm): Identity()
                (linear_pos): Linear(in_features=192, out_features=192, bias=False)
              )
              (feed_forward): MultiLayeredConv1d(
                (w_1): Conv1d(192, 768, kernel_size=(3,), stride=(1,), padding=(1,))
                (w_2): Conv1d(768, 192, kernel_size=(3,), stride=(1,), padding=(1,))
                (dropout): Dropout(p=0.1, inplace=False)
              )
              (feed_forward_macaron): MultiLayeredConv1d(
                (w_1): Conv1d(192, 768, kernel_size=(3,), stride=(1,), padding=(1,))
                (w_2): Conv1d(768, 192, kernel_size=(3,), stride=(1,), padding=(1,))
                (dropout): Dropout(p=0.1, inplace=False)
              )
              (norm_ff): LayerNorm((192,), eps=1e-12, elementwise_affine=True)
              (norm_mha): LayerNorm((192,), eps=1e-12, elementwise_affine=True)
              (norm_ff_macaron): LayerNorm((192,), eps=1e-12, elementwise_affine=True)
              (dropout): Dropout(p=0.1, inplace=False)
            )
          )
          (after_norm): LayerNorm((192,), eps=1e-12, elementwise_affine=True)
        )
        (proj): Conv1d(192, 1, kernel_size=(1,), stride=(1,))
        (global_conv): Conv1d(512, 192, kernel_size=(1,), stride=(1,))
      )
      (mel_decoder): Decoder(
        (prenet): Conv1d(194, 192, kernel_size=(3,), stride=(1,), padding=(1,))
        (decoder): Encoder(
          (embed): Sequential(
            (0): RelPositionalEncoding(
              (dropout): Dropout(p=0.0, inplace=False)
            )
          )
          (encoders): MultiSequential(
            (0): EncoderLayer(
              (self_attn): RelPositionMultiHeadedAttention(
                (linear_q): Linear(in_features=192, out_features=192, bias=True)
                (linear_k): Linear(in_features=192, out_features=192, bias=True)
                (linear_v): Linear(in_features=192, out_features=192, bias=True)
                (linear_out): Linear(in_features=192, out_features=192, bias=True)
                (dropout): Dropout(p=0.1, inplace=False)
                (q_norm): Identity()
                (k_norm): Identity()
                (linear_pos): Linear(in_features=192, out_features=192, bias=False)
              )
              (feed_forward): MultiLayeredConv1d(
                (w_1): Conv1d(192, 768, kernel_size=(3,), stride=(1,), padding=(1,))
                (w_2): Conv1d(768, 192, kernel_size=(3,), stride=(1,), padding=(1,))
                (dropout): Dropout(p=0.1, inplace=False)
              )
              (feed_forward_macaron): MultiLayeredConv1d(
                (w_1): Conv1d(192, 768, kernel_size=(3,), stride=(1,), padding=(1,))
                (w_2): Conv1d(768, 192, kernel_size=(3,), stride=(1,), padding=(1,))
                (dropout): Dropout(p=0.1, inplace=False)
              )
              (norm_ff): LayerNorm((192,), eps=1e-12, elementwise_affine=True)
              (norm_mha): LayerNorm((192,), eps=1e-12, elementwise_affine=True)
              (norm_ff_macaron): LayerNorm((192,), eps=1e-12, elementwise_affine=True)
              (dropout): Dropout(p=0.1, inplace=False)
            )
            (1): EncoderLayer(
              (self_attn): RelPositionMultiHeadedAttention(
                (linear_q): Linear(in_features=192, out_features=192, bias=True)
                (linear_k): Linear(in_features=192, out_features=192, bias=True)
                (linear_v): Linear(in_features=192, out_features=192, bias=True)
                (linear_out): Linear(in_features=192, out_features=192, bias=True)
                (dropout): Dropout(p=0.1, inplace=False)
                (q_norm): Identity()
                (k_norm): Identity()
                (linear_pos): Linear(in_features=192, out_features=192, bias=False)
              )
              (feed_forward): MultiLayeredConv1d(
                (w_1): Conv1d(192, 768, kernel_size=(3,), stride=(1,), padding=(1,))
                (w_2): Conv1d(768, 192, kernel_size=(3,), stride=(1,), padding=(1,))
                (dropout): Dropout(p=0.1, inplace=False)
              )
              (feed_forward_macaron): MultiLayeredConv1d(
                (w_1): Conv1d(192, 768, kernel_size=(3,), stride=(1,), padding=(1,))
                (w_2): Conv1d(768, 192, kernel_size=(3,), stride=(1,), padding=(1,))
                (dropout): Dropout(p=0.1, inplace=False)
              )
              (norm_ff): LayerNorm((192,), eps=1e-12, elementwise_affine=True)
              (norm_mha): LayerNorm((192,), eps=1e-12, elementwise_affine=True)
              (norm_ff_macaron): LayerNorm((192,), eps=1e-12, elementwise_affine=True)
              (dropout): Dropout(p=0.1, inplace=False)
            )
            (2): EncoderLayer(
              (self_attn): RelPositionMultiHeadedAttention(
                (linear_q): Linear(in_features=192, out_features=192, bias=True)
                (linear_k): Linear(in_features=192, out_features=192, bias=True)
                (linear_v): Linear(in_features=192, out_features=192, bias=True)
                (linear_out): Linear(in_features=192, out_features=192, bias=True)
                (dropout): Dropout(p=0.1, inplace=False)
                (q_norm): Identity()
                (k_norm): Identity()
                (linear_pos): Linear(in_features=192, out_features=192, bias=False)
              )
              (feed_forward): MultiLayeredConv1d(
                (w_1): Conv1d(192, 768, kernel_size=(3,), stride=(1,), padding=(1,))
                (w_2): Conv1d(768, 192, kernel_size=(3,), stride=(1,), padding=(1,))
                (dropout): Dropout(p=0.1, inplace=False)
              )
              (feed_forward_macaron): MultiLayeredConv1d(
                (w_1): Conv1d(192, 768, kernel_size=(3,), stride=(1,), padding=(1,))
                (w_2): Conv1d(768, 192, kernel_size=(3,), stride=(1,), padding=(1,))
                (dropout): Dropout(p=0.1, inplace=False)
              )
              (norm_ff): LayerNorm((192,), eps=1e-12, elementwise_affine=True)
              (norm_mha): LayerNorm((192,), eps=1e-12, elementwise_affine=True)
              (norm_ff_macaron): LayerNorm((192,), eps=1e-12, elementwise_affine=True)
              (dropout): Dropout(p=0.1, inplace=False)
            )
            (3): EncoderLayer(
              (self_attn): RelPositionMultiHeadedAttention(
                (linear_q): Linear(in_features=192, out_features=192, bias=True)
                (linear_k): Linear(in_features=192, out_features=192, bias=True)
                (linear_v): Linear(in_features=192, out_features=192, bias=True)
                (linear_out): Linear(in_features=192, out_features=192, bias=True)
                (dropout): Dropout(p=0.1, inplace=False)
                (q_norm): Identity()
                (k_norm): Identity()
                (linear_pos): Linear(in_features=192, out_features=192, bias=False)
              )
              (feed_forward): MultiLayeredConv1d(
                (w_1): Conv1d(192, 768, kernel_size=(3,), stride=(1,), padding=(1,))
                (w_2): Conv1d(768, 192, kernel_size=(3,), stride=(1,), padding=(1,))
                (dropout): Dropout(p=0.1, inplace=False)
              )
              (feed_forward_macaron): MultiLayeredConv1d(
                (w_1): Conv1d(192, 768, kernel_size=(3,), stride=(1,), padding=(1,))
                (w_2): Conv1d(768, 192, kernel_size=(3,), stride=(1,), padding=(1,))
                (dropout): Dropout(p=0.1, inplace=False)
              )
              (norm_ff): LayerNorm((192,), eps=1e-12, elementwise_affine=True)
              (norm_mha): LayerNorm((192,), eps=1e-12, elementwise_affine=True)
              (norm_ff_macaron): LayerNorm((192,), eps=1e-12, elementwise_affine=True)
              (dropout): Dropout(p=0.1, inplace=False)
            )
            (4): EncoderLayer(
              (self_attn): RelPositionMultiHeadedAttention(
                (linear_q): Linear(in_features=192, out_features=192, bias=True)
                (linear_k): Linear(in_features=192, out_features=192, bias=True)
                (linear_v): Linear(in_features=192, out_features=192, bias=True)
                (linear_out): Linear(in_features=192, out_features=192, bias=True)
                (dropout): Dropout(p=0.1, inplace=False)
                (q_norm): Identity()
                (k_norm): Identity()
                (linear_pos): Linear(in_features=192, out_features=192, bias=False)
              )
              (feed_forward): MultiLayeredConv1d(
                (w_1): Conv1d(192, 768, kernel_size=(3,), stride=(1,), padding=(1,))
                (w_2): Conv1d(768, 192, kernel_size=(3,), stride=(1,), padding=(1,))
                (dropout): Dropout(p=0.1, inplace=False)
              )
              (feed_forward_macaron): MultiLayeredConv1d(
                (w_1): Conv1d(192, 768, kernel_size=(3,), stride=(1,), padding=(1,))
                (w_2): Conv1d(768, 192, kernel_size=(3,), stride=(1,), padding=(1,))
                (dropout): Dropout(p=0.1, inplace=False)
              )
              (norm_ff): LayerNorm((192,), eps=1e-12, elementwise_affine=True)
              (norm_mha): LayerNorm((192,), eps=1e-12, elementwise_affine=True)
              (norm_ff_macaron): LayerNorm((192,), eps=1e-12, elementwise_affine=True)
              (dropout): Dropout(p=0.1, inplace=False)
            )
            (5): EncoderLayer(
              (self_attn): RelPositionMultiHeadedAttention(
                (linear_q): Linear(in_features=192, out_features=192, bias=True)
                (linear_k): Linear(in_features=192, out_features=192, bias=True)
                (linear_v): Linear(in_features=192, out_features=192, bias=True)
                (linear_out): Linear(in_features=192, out_features=192, bias=True)
                (dropout): Dropout(p=0.1, inplace=False)
                (q_norm): Identity()
                (k_norm): Identity()
                (linear_pos): Linear(in_features=192, out_features=192, bias=False)
              )
              (feed_forward): MultiLayeredConv1d(
                (w_1): Conv1d(192, 768, kernel_size=(3,), stride=(1,), padding=(1,))
                (w_2): Conv1d(768, 192, kernel_size=(3,), stride=(1,), padding=(1,))
                (dropout): Dropout(p=0.1, inplace=False)
              )
              (feed_forward_macaron): MultiLayeredConv1d(
                (w_1): Conv1d(192, 768, kernel_size=(3,), stride=(1,), padding=(1,))
                (w_2): Conv1d(768, 192, kernel_size=(3,), stride=(1,), padding=(1,))
                (dropout): Dropout(p=0.1, inplace=False)
              )
              (norm_ff): LayerNorm((192,), eps=1e-12, elementwise_affine=True)
              (norm_mha): LayerNorm((192,), eps=1e-12, elementwise_affine=True)
              (norm_ff_macaron): LayerNorm((192,), eps=1e-12, elementwise_affine=True)
              (dropout): Dropout(p=0.1, inplace=False)
            )
          )
          (after_norm): LayerNorm((192,), eps=1e-12, elementwise_affine=True)
        )
        (proj): Conv1d(192, 80, kernel_size=(1,), stride=(1,))
        (global_conv): Conv1d(512, 192, kernel_size=(1,), stride=(1,))
      )
      (prior_decoder): PriorDecoder(
        (prenet): Conv1d(194, 192, kernel_size=(3,), stride=(1,), padding=(1,))
        (decoder): Encoder(
          (embed): Sequential(
            (0): RelPositionalEncoding(
              (dropout): Dropout(p=0.0, inplace=False)
            )
          )
          (encoders): MultiSequential(
            (0): EncoderLayer(
              (self_attn): RelPositionMultiHeadedAttention(
                (linear_q): Linear(in_features=192, out_features=192, bias=True)
                (linear_k): Linear(in_features=192, out_features=192, bias=True)
                (linear_v): Linear(in_features=192, out_features=192, bias=True)
                (linear_out): Linear(in_features=192, out_features=192, bias=True)
                (dropout): Dropout(p=0.1, inplace=False)
                (q_norm): Identity()
                (k_norm): Identity()
                (linear_pos): Linear(in_features=192, out_features=192, bias=False)
              )
              (feed_forward): MultiLayeredConv1d(
                (w_1): Conv1d(192, 768, kernel_size=(3,), stride=(1,), padding=(1,))
                (w_2): Conv1d(768, 192, kernel_size=(3,), stride=(1,), padding=(1,))
                (dropout): Dropout(p=0.1, inplace=False)
              )
              (feed_forward_macaron): MultiLayeredConv1d(
                (w_1): Conv1d(192, 768, kernel_size=(3,), stride=(1,), padding=(1,))
                (w_2): Conv1d(768, 192, kernel_size=(3,), stride=(1,), padding=(1,))
                (dropout): Dropout(p=0.1, inplace=False)
              )
              (norm_ff): LayerNorm((192,), eps=1e-12, elementwise_affine=True)
              (norm_mha): LayerNorm((192,), eps=1e-12, elementwise_affine=True)
              (norm_ff_macaron): LayerNorm((192,), eps=1e-12, elementwise_affine=True)
              (dropout): Dropout(p=0.1, inplace=False)
            )
            (1): EncoderLayer(
              (self_attn): RelPositionMultiHeadedAttention(
                (linear_q): Linear(in_features=192, out_features=192, bias=True)
                (linear_k): Linear(in_features=192, out_features=192, bias=True)
                (linear_v): Linear(in_features=192, out_features=192, bias=True)
                (linear_out): Linear(in_features=192, out_features=192, bias=True)
                (dropout): Dropout(p=0.1, inplace=False)
                (q_norm): Identity()
                (k_norm): Identity()
                (linear_pos): Linear(in_features=192, out_features=192, bias=False)
              )
              (feed_forward): MultiLayeredConv1d(
                (w_1): Conv1d(192, 768, kernel_size=(3,), stride=(1,), padding=(1,))
                (w_2): Conv1d(768, 192, kernel_size=(3,), stride=(1,), padding=(1,))
                (dropout): Dropout(p=0.1, inplace=False)
              )
              (feed_forward_macaron): MultiLayeredConv1d(
                (w_1): Conv1d(192, 768, kernel_size=(3,), stride=(1,), padding=(1,))
                (w_2): Conv1d(768, 192, kernel_size=(3,), stride=(1,), padding=(1,))
                (dropout): Dropout(p=0.1, inplace=False)
              )
              (norm_ff): LayerNorm((192,), eps=1e-12, elementwise_affine=True)
              (norm_mha): LayerNorm((192,), eps=1e-12, elementwise_affine=True)
              (norm_ff_macaron): LayerNorm((192,), eps=1e-12, elementwise_affine=True)
              (dropout): Dropout(p=0.1, inplace=False)
            )
            (2): EncoderLayer(
              (self_attn): RelPositionMultiHeadedAttention(
                (linear_q): Linear(in_features=192, out_features=192, bias=True)
                (linear_k): Linear(in_features=192, out_features=192, bias=True)
                (linear_v): Linear(in_features=192, out_features=192, bias=True)
                (linear_out): Linear(in_features=192, out_features=192, bias=True)
                (dropout): Dropout(p=0.1, inplace=False)
                (q_norm): Identity()
                (k_norm): Identity()
                (linear_pos): Linear(in_features=192, out_features=192, bias=False)
              )
              (feed_forward): MultiLayeredConv1d(
                (w_1): Conv1d(192, 768, kernel_size=(3,), stride=(1,), padding=(1,))
                (w_2): Conv1d(768, 192, kernel_size=(3,), stride=(1,), padding=(1,))
                (dropout): Dropout(p=0.1, inplace=False)
              )
              (feed_forward_macaron): MultiLayeredConv1d(
                (w_1): Conv1d(192, 768, kernel_size=(3,), stride=(1,), padding=(1,))
                (w_2): Conv1d(768, 192, kernel_size=(3,), stride=(1,), padding=(1,))
                (dropout): Dropout(p=0.1, inplace=False)
              )
              (norm_ff): LayerNorm((192,), eps=1e-12, elementwise_affine=True)
              (norm_mha): LayerNorm((192,), eps=1e-12, elementwise_affine=True)
              (norm_ff_macaron): LayerNorm((192,), eps=1e-12, elementwise_affine=True)
              (dropout): Dropout(p=0.1, inplace=False)
            )
            (3): EncoderLayer(
              (self_attn): RelPositionMultiHeadedAttention(
                (linear_q): Linear(in_features=192, out_features=192, bias=True)
                (linear_k): Linear(in_features=192, out_features=192, bias=True)
                (linear_v): Linear(in_features=192, out_features=192, bias=True)
                (linear_out): Linear(in_features=192, out_features=192, bias=True)
                (dropout): Dropout(p=0.1, inplace=False)
                (q_norm): Identity()
                (k_norm): Identity()
                (linear_pos): Linear(in_features=192, out_features=192, bias=False)
              )
              (feed_forward): MultiLayeredConv1d(
                (w_1): Conv1d(192, 768, kernel_size=(3,), stride=(1,), padding=(1,))
                (w_2): Conv1d(768, 192, kernel_size=(3,), stride=(1,), padding=(1,))
                (dropout): Dropout(p=0.1, inplace=False)
              )
              (feed_forward_macaron): MultiLayeredConv1d(
                (w_1): Conv1d(192, 768, kernel_size=(3,), stride=(1,), padding=(1,))
                (w_2): Conv1d(768, 192, kernel_size=(3,), stride=(1,), padding=(1,))
                (dropout): Dropout(p=0.1, inplace=False)
              )
              (norm_ff): LayerNorm((192,), eps=1e-12, elementwise_affine=True)
              (norm_mha): LayerNorm((192,), eps=1e-12, elementwise_affine=True)
              (norm_ff_macaron): LayerNorm((192,), eps=1e-12, elementwise_affine=True)
              (dropout): Dropout(p=0.1, inplace=False)
            )
            (4): EncoderLayer(
              (self_attn): RelPositionMultiHeadedAttention(
                (linear_q): Linear(in_features=192, out_features=192, bias=True)
                (linear_k): Linear(in_features=192, out_features=192, bias=True)
                (linear_v): Linear(in_features=192, out_features=192, bias=True)
                (linear_out): Linear(in_features=192, out_features=192, bias=True)
                (dropout): Dropout(p=0.1, inplace=False)
                (q_norm): Identity()
                (k_norm): Identity()
                (linear_pos): Linear(in_features=192, out_features=192, bias=False)
              )
              (feed_forward): MultiLayeredConv1d(
                (w_1): Conv1d(192, 768, kernel_size=(3,), stride=(1,), padding=(1,))
                (w_2): Conv1d(768, 192, kernel_size=(3,), stride=(1,), padding=(1,))
                (dropout): Dropout(p=0.1, inplace=False)
              )
              (feed_forward_macaron): MultiLayeredConv1d(
                (w_1): Conv1d(192, 768, kernel_size=(3,), stride=(1,), padding=(1,))
                (w_2): Conv1d(768, 192, kernel_size=(3,), stride=(1,), padding=(1,))
                (dropout): Dropout(p=0.1, inplace=False)
              )
              (norm_ff): LayerNorm((192,), eps=1e-12, elementwise_affine=True)
              (norm_mha): LayerNorm((192,), eps=1e-12, elementwise_affine=True)
              (norm_ff_macaron): LayerNorm((192,), eps=1e-12, elementwise_affine=True)
              (dropout): Dropout(p=0.1, inplace=False)
            )
            (5): EncoderLayer(
              (self_attn): RelPositionMultiHeadedAttention(
                (linear_q): Linear(in_features=192, out_features=192, bias=True)
                (linear_k): Linear(in_features=192, out_features=192, bias=True)
                (linear_v): Linear(in_features=192, out_features=192, bias=True)
                (linear_out): Linear(in_features=192, out_features=192, bias=True)
                (dropout): Dropout(p=0.1, inplace=False)
                (q_norm): Identity()
                (k_norm): Identity()
                (linear_pos): Linear(in_features=192, out_features=192, bias=False)
              )
              (feed_forward): MultiLayeredConv1d(
                (w_1): Conv1d(192, 768, kernel_size=(3,), stride=(1,), padding=(1,))
                (w_2): Conv1d(768, 192, kernel_size=(3,), stride=(1,), padding=(1,))
                (dropout): Dropout(p=0.1, inplace=False)
              )
              (feed_forward_macaron): MultiLayeredConv1d(
                (w_1): Conv1d(192, 768, kernel_size=(3,), stride=(1,), padding=(1,))
                (w_2): Conv1d(768, 192, kernel_size=(3,), stride=(1,), padding=(1,))
                (dropout): Dropout(p=0.1, inplace=False)
              )
              (norm_ff): LayerNorm((192,), eps=1e-12, elementwise_affine=True)
              (norm_mha): LayerNorm((192,), eps=1e-12, elementwise_affine=True)
              (norm_ff_macaron): LayerNorm((192,), eps=1e-12, elementwise_affine=True)
              (dropout): Dropout(p=0.1, inplace=False)
            )
          )
          (after_norm): LayerNorm((192,), eps=1e-12, elementwise_affine=True)
        )
        (proj): Conv1d(192, 384, kernel_size=(1,), stride=(1,))
        (conv): Conv1d(512, 192, kernel_size=(1,), stride=(1,))
      )
      (global_emb): Embedding(2, 512)
      (dropout): Dropout(p=0.2, inplace=False)
    )
    (discriminator): VISinger2Discriminator(
      (msd): HiFiGANMultiScaleDiscriminator(
        (discriminators): ModuleList(
          (0): HiFiGANScaleDiscriminator(
            (layers): ModuleList(
              (0): Sequential(
                (0): Conv1d(1, 128, kernel_size=(15,), stride=(1,), padding=(7,))
                (1): LeakyReLU(negative_slope=0.1)
              )
              (1): Sequential(
                (0): Conv1d(128, 128, kernel_size=(41,), stride=(4,), padding=(20,), groups=4)
                (1): LeakyReLU(negative_slope=0.1)
              )
              (2): Sequential(
                (0): Conv1d(128, 256, kernel_size=(41,), stride=(4,), padding=(20,), groups=16)
                (1): LeakyReLU(negative_slope=0.1)
              )
              (3): Sequential(
                (0): Conv1d(256, 512, kernel_size=(41,), stride=(4,), padding=(20,), groups=64)
                (1): LeakyReLU(negative_slope=0.1)
              )
              (4): Sequential(
                (0): Conv1d(512, 1024, kernel_size=(41,), stride=(4,), padding=(20,), groups=256)
                (1): LeakyReLU(negative_slope=0.1)
              )
              (5): Sequential(
                (0): Conv1d(1024, 1024, kernel_size=(5,), stride=(1,), padding=(2,))
                (1): LeakyReLU(negative_slope=0.1)
              )
              (6): Conv1d(1024, 1, kernel_size=(3,), stride=(1,), padding=(1,))
            )
          )
        )
      )
      (mpd): HiFiGANMultiPeriodDiscriminator(
        (discriminators): ModuleList(
          (0-4): 5 x HiFiGANPeriodDiscriminator(
            (convs): ModuleList(
              (0): Sequential(
                (0): Conv2d(1, 32, kernel_size=(5, 1), stride=(3, 1), padding=(2, 0))
                (1): LeakyReLU(negative_slope=0.1)
              )
              (1): Sequential(
                (0): Conv2d(32, 128, kernel_size=(5, 1), stride=(3, 1), padding=(2, 0))
                (1): LeakyReLU(negative_slope=0.1)
              )
              (2): Sequential(
                (0): Conv2d(128, 512, kernel_size=(5, 1), stride=(3, 1), padding=(2, 0))
                (1): LeakyReLU(negative_slope=0.1)
              )
              (3): Sequential(
                (0): Conv2d(512, 1024, kernel_size=(5, 1), stride=(3, 1), padding=(2, 0))
                (1): LeakyReLU(negative_slope=0.1)
              )
              (4): Sequential(
                (0): Conv2d(1024, 1024, kernel_size=(5, 1), stride=(1, 1), padding=(2, 0))
                (1): LeakyReLU(negative_slope=0.1)
              )
            )
            (output_conv): Conv2d(1024, 1, kernel_size=(2, 1), stride=(1, 1), padding=(1, 0))
          )
        )
      )
      (mfd): MultiFrequencyDiscriminator(
        (stfts): ModuleList(
          (0-5): 6 x TorchSTFT(
            (mel_scale): MelScale()
          )
        )
        (discriminators): ModuleList(
          (0-4): 5 x BaseFrequenceDiscriminator(
            (discriminators): ModuleList(
              (0): Sequential(
                (0): LeakyReLU(negative_slope=0.2, inplace=True)
                (1): ReflectionPad2d((1, 1, 1, 1))
                (2): Conv2d(2, 8, kernel_size=(3, 3), stride=(1, 1))
              )
              (1): Sequential(
                (0): LeakyReLU(negative_slope=0.2, inplace=True)
                (1): ReflectionPad2d((1, 1, 1, 1))
                (2): Conv2d(8, 16, kernel_size=(3, 3), stride=(2, 2))
              )
              (2): Sequential(
                (0): LeakyReLU(negative_slope=0.2, inplace=True)
                (1): ReflectionPad2d((1, 1, 1, 1))
                (2): Conv2d(16, 32, kernel_size=(3, 3), stride=(1, 1))
              )
              (3): Sequential(
                (0): LeakyReLU(negative_slope=0.2, inplace=True)
                (1): ReflectionPad2d((1, 1, 1, 1))
                (2): Conv2d(32, 64, kernel_size=(3, 3), stride=(2, 2))
              )
              (4): Sequential(
                (0): LeakyReLU(negative_slope=0.2, inplace=True)
                (1): ReflectionPad2d((1, 1, 1, 1))
                (2): Conv2d(64, 128, kernel_size=(3, 3), stride=(1, 1))
              )
              (5): Sequential(
                (0): LeakyReLU(negative_slope=0.2, inplace=True)
                (1): ReflectionPad2d((1, 1, 1, 1))
                (2): Conv2d(128, 256, kernel_size=(3, 3), stride=(2, 2))
              )
              (6): Sequential(
                (0): Identity()
                (1): ReflectionPad2d((1, 1, 1, 1))
                (2): Conv2d(256, 1, kernel_size=(3, 3), stride=(1, 1))
              )
            )
          )
        )
      )
    )
    (generator_adv_loss): GeneratorAdversarialLoss()
    (discriminator_adv_loss): DiscriminatorAdversarialLoss()
    (feat_match_loss): FeatureMatchLoss()
    (mel_loss): MelSpectrogramLoss(
      (wav_to_mel): LogMelFbank(
        (stft): Stft(n_fft=2048, win_length=2048, hop_length=256, center=True, normalized=False, onesided=True)
…
