…
/ocean/projects/cis210027p/ttao3/espnet/espnet2/gan_tts/vits/monotonic_align/__init__.py:19: UserWarning: Cython version is not available. Fallback to 'EXPERIMETAL' numba version. If you want to use the cython version, please build it as follows: `cd espnet2/gan_tts/vits/monotonic_align; python setup.py build_ext --inplace`
  warnings.warn(
pytorch.version=2.7.1+cu126, cuda.available=False, cudnn.version=90501, cudnn.benchmark=False, cudnn.deterministic=False
Model structure:
ESPnetGANTTSModel(
  (feats_extract): LinearSpectrogram(
    (stft): Stft(n_fft=1024, win_length=1024, hop_length=256, center=True, normalized=False, onesided=True)
  )
  (tts): VITS(
    (generator): VITSGenerator(
      (text_encoder): TextEncoder(
        (emb): Embedding(74, 192)
        (encoder): Encoder(
          (embed): Sequential(
            (0): RelPositionalEncoding(
              (dropout): Dropout(p=0.0, inplace=False)
            )
          )
          (encoders): MultiSequential(
            (0): EncoderLayer(
              (self_attn): RelPositionMultiHeadedAttention(
                (linear_q): Linear(in_features=192, out_features=192, bias=True)
                (linear_k): Linear(in_features=192, out_features=192, bias=True)
                (linear_v): Linear(in_features=192, out_features=192, bias=True)
                (linear_out): Linear(in_features=192, out_features=192, bias=True)
                (dropout): Dropout(p=0.1, inplace=False)
                (q_norm): Identity()
                (k_norm): Identity()
                (linear_pos): Linear(in_features=192, out_features=192, bias=False)
              )
              (feed_forward): MultiLayeredConv1d(
                (w_1): Conv1d(192, 768, kernel_size=(3,), stride=(1,), padding=(1,))
                (w_2): Conv1d(768, 192, kernel_size=(3,), stride=(1,), padding=(1,))
                (dropout): Dropout(p=0.1, inplace=False)
              )
              (feed_forward_macaron): MultiLayeredConv1d(
                (w_1): Conv1d(192, 768, kernel_size=(3,), stride=(1,), padding=(1,))
                (w_2): Conv1d(768, 192, kernel_size=(3,), stride=(1,), padding=(1,))
                (dropout): Dropout(p=0.1, inplace=False)
              )
              (norm_ff): LayerNorm((192,), eps=1e-12, elementwise_affine=True)
              (norm_mha): LayerNorm((192,), eps=1e-12, elementwise_affine=True)
              (norm_ff_macaron): LayerNorm((192,), eps=1e-12, elementwise_affine=True)
              (dropout): Dropout(p=0.1, inplace=False)
            )
            (1): EncoderLayer(
              (self_attn): RelPositionMultiHeadedAttention(
                (linear_q): Linear(in_features=192, out_features=192, bias=True)
                (linear_k): Linear(in_features=192, out_features=192, bias=True)
                (linear_v): Linear(in_features=192, out_features=192, bias=True)
                (linear_out): Linear(in_features=192, out_features=192, bias=True)
                (dropout): Dropout(p=0.1, inplace=False)
                (q_norm): Identity()
                (k_norm): Identity()
                (linear_pos): Linear(in_features=192, out_features=192, bias=False)
              )
              (feed_forward): MultiLayeredConv1d(
                (w_1): Conv1d(192, 768, kernel_size=(3,), stride=(1,), padding=(1,))
                (w_2): Conv1d(768, 192, kernel_size=(3,), stride=(1,), padding=(1,))
                (dropout): Dropout(p=0.1, inplace=False)
              )
              (feed_forward_macaron): MultiLayeredConv1d(
                (w_1): Conv1d(192, 768, kernel_size=(3,), stride=(1,), padding=(1,))
                (w_2): Conv1d(768, 192, kernel_size=(3,), stride=(1,), padding=(1,))
                (dropout): Dropout(p=0.1, inplace=False)
              )
              (norm_ff): LayerNorm((192,), eps=1e-12, elementwise_affine=True)
              (norm_mha): LayerNorm((192,), eps=1e-12, elementwise_affine=True)
              (norm_ff_macaron): LayerNorm((192,), eps=1e-12, elementwise_affine=True)
              (dropout): Dropout(p=0.1, inplace=False)
            )
            (2): EncoderLayer(
              (self_attn): RelPositionMultiHeadedAttention(
                (linear_q): Linear(in_features=192, out_features=192, bias=True)
                (linear_k): Linear(in_features=192, out_features=192, bias=True)
                (linear_v): Linear(in_features=192, out_features=192, bias=True)
                (linear_out): Linear(in_features=192, out_features=192, bias=True)
                (dropout): Dropout(p=0.1, inplace=False)
                (q_norm): Identity()
                (k_norm): Identity()
                (linear_pos): Linear(in_features=192, out_features=192, bias=False)
              )
              (feed_forward): MultiLayeredConv1d(
                (w_1): Conv1d(192, 768, kernel_size=(3,), stride=(1,), padding=(1,))
                (w_2): Conv1d(768, 192, kernel_size=(3,), stride=(1,), padding=(1,))
                (dropout): Dropout(p=0.1, inplace=False)
              )
              (feed_forward_macaron): MultiLayeredConv1d(
                (w_1): Conv1d(192, 768, kernel_size=(3,), stride=(1,), padding=(1,))
                (w_2): Conv1d(768, 192, kernel_size=(3,), stride=(1,), padding=(1,))
                (dropout): Dropout(p=0.1, inplace=False)
              )
              (norm_ff): LayerNorm((192,), eps=1e-12, elementwise_affine=True)
              (norm_mha): LayerNorm((192,), eps=1e-12, elementwise_affine=True)
              (norm_ff_macaron): LayerNorm((192,), eps=1e-12, elementwise_affine=True)
              (dropout): Dropout(p=0.1, inplace=False)
            )
            (3): EncoderLayer(
              (self_attn): RelPositionMultiHeadedAttention(
                (linear_q): Linear(in_features=192, out_features=192, bias=True)
                (linear_k): Linear(in_features=192, out_features=192, bias=True)
                (linear_v): Linear(in_features=192, out_features=192, bias=True)
                (linear_out): Linear(in_features=192, out_features=192, bias=True)
                (dropout): Dropout(p=0.1, inplace=False)
                (q_norm): Identity()
                (k_norm): Identity()
                (linear_pos): Linear(in_features=192, out_features=192, bias=False)
              )
              (feed_forward): MultiLayeredConv1d(
                (w_1): Conv1d(192, 768, kernel_size=(3,), stride=(1,), padding=(1,))
                (w_2): Conv1d(768, 192, kernel_size=(3,), stride=(1,), padding=(1,))
                (dropout): Dropout(p=0.1, inplace=False)
              )
              (feed_forward_macaron): MultiLayeredConv1d(
                (w_1): Conv1d(192, 768, kernel_size=(3,), stride=(1,), padding=(1,))
                (w_2): Conv1d(768, 192, kernel_size=(3,), stride=(1,), padding=(1,))
                (dropout): Dropout(p=0.1, inplace=False)
              )
              (norm_ff): LayerNorm((192,), eps=1e-12, elementwise_affine=True)
              (norm_mha): LayerNorm((192,), eps=1e-12, elementwise_affine=True)
              (norm_ff_macaron): LayerNorm((192,), eps=1e-12, elementwise_affine=True)
              (dropout): Dropout(p=0.1, inplace=False)
            )
            (4): EncoderLayer(
              (self_attn): RelPositionMultiHeadedAttention(
                (linear_q): Linear(in_features=192, out_features=192, bias=True)
                (linear_k): Linear(in_features=192, out_features=192, bias=True)
                (linear_v): Linear(in_features=192, out_features=192, bias=True)
                (linear_out): Linear(in_features=192, out_features=192, bias=True)
                (dropout): Dropout(p=0.1, inplace=False)
                (q_norm): Identity()
                (k_norm): Identity()
                (linear_pos): Linear(in_features=192, out_features=192, bias=False)
              )
              (feed_forward): MultiLayeredConv1d(
                (w_1): Conv1d(192, 768, kernel_size=(3,), stride=(1,), padding=(1,))
                (w_2): Conv1d(768, 192, kernel_size=(3,), stride=(1,), padding=(1,))
                (dropout): Dropout(p=0.1, inplace=False)
              )
              (feed_forward_macaron): MultiLayeredConv1d(
                (w_1): Conv1d(192, 768, kernel_size=(3,), stride=(1,), padding=(1,))
                (w_2): Conv1d(768, 192, kernel_size=(3,), stride=(1,), padding=(1,))
                (dropout): Dropout(p=0.1, inplace=False)
              )
              (norm_ff): LayerNorm((192,), eps=1e-12, elementwise_affine=True)
              (norm_mha): LayerNorm((192,), eps=1e-12, elementwise_affine=True)
              (norm_ff_macaron): LayerNorm((192,), eps=1e-12, elementwise_affine=True)
              (dropout): Dropout(p=0.1, inplace=False)
            )
            (5): EncoderLayer(
              (self_attn): RelPositionMultiHeadedAttention(
                (linear_q): Linear(in_features=192, out_features=192, bias=True)
                (linear_k): Linear(in_features=192, out_features=192, bias=True)
                (linear_v): Linear(in_features=192, out_features=192, bias=True)
                (linear_out): Linear(in_features=192, out_features=192, bias=True)
                (dropout): Dropout(p=0.1, inplace=False)
                (q_norm): Identity()
                (k_norm): Identity()
                (linear_pos): Linear(in_features=192, out_features=192, bias=False)
              )
              (feed_forward): MultiLayeredConv1d(
                (w_1): Conv1d(192, 768, kernel_size=(3,), stride=(1,), padding=(1,))
                (w_2): Conv1d(768, 192, kernel_size=(3,), stride=(1,), padding=(1,))
                (dropout): Dropout(p=0.1, inplace=False)
              )
              (feed_forward_macaron): MultiLayeredConv1d(
                (w_1): Conv1d(192, 768, kernel_size=(3,), stride=(1,), padding=(1,))
                (w_2): Conv1d(768, 192, kernel_size=(3,), stride=(1,), padding=(1,))
                (dropout): Dropout(p=0.1, inplace=False)
              )
              (norm_ff): LayerNorm((192,), eps=1e-12, elementwise_affine=True)
              (norm_mha): LayerNorm((192,), eps=1e-12, elementwise_affine=True)
              (norm_ff_macaron): LayerNorm((192,), eps=1e-12, elementwise_affine=True)
              (dropout): Dropout(p=0.1, inplace=False)
            )
          )
          (after_norm): LayerNorm((192,), eps=1e-12, elementwise_affine=True)
        )
        (proj): Conv1d(192, 384, kernel_size=(1,), stride=(1,))
      )
      (decoder): HiFiGANGenerator(
        (input_conv): Conv1d(192, 512, kernel_size=(7,), stride=(1,), padding=(3,))
        (upsamples): ModuleList(
          (0): Sequential(
            (0): LeakyReLU(negative_slope=0.1)
            (1): ConvTranspose1d(512, 256, kernel_size=(16,), stride=(8,), padding=(4,))
          )
          (1): Sequential(
            (0): LeakyReLU(negative_slope=0.1)
            (1): ConvTranspose1d(256, 128, kernel_size=(16,), stride=(8,), padding=(4,))
          )
          (2): Sequential(
            (0): LeakyReLU(negative_slope=0.1)
            (1): ConvTranspose1d(128, 64, kernel_size=(4,), stride=(2,), padding=(1,))
          )
          (3): Sequential(
            (0): LeakyReLU(negative_slope=0.1)
            (1): ConvTranspose1d(64, 32, kernel_size=(4,), stride=(2,), padding=(1,))
          )
        )
        (blocks): ModuleList(
          (0): ResidualBlock(
            (convs1): ModuleList(
              (0): Sequential(
                (0): LeakyReLU(negative_slope=0.1)
                (1): Conv1d(256, 256, kernel_size=(3,), stride=(1,), padding=(1,))
              )
              (1): Sequential(
                (0): LeakyReLU(negative_slope=0.1)
                (1): Conv1d(256, 256, kernel_size=(3,), stride=(1,), padding=(3,), dilation=(3,))
              )
              (2): Sequential(
                (0): LeakyReLU(negative_slope=0.1)
                (1): Conv1d(256, 256, kernel_size=(3,), stride=(1,), padding=(5,), dilation=(5,))
              )
            )
            (convs2): ModuleList(
              (0-2): 3 x Sequential(
                (0): LeakyReLU(negative_slope=0.1)
                (1): Conv1d(256, 256, kernel_size=(3,), stride=(1,), padding=(1,))
              )
            )
          )
          (1): ResidualBlock(
            (convs1): ModuleList(
              (0): Sequential(
                (0): LeakyReLU(negative_slope=0.1)
                (1): Conv1d(256, 256, kernel_size=(7,), stride=(1,), padding=(3,))
              )
              (1): Sequential(
                (0): LeakyReLU(negative_slope=0.1)
                (1): Conv1d(256, 256, kernel_size=(7,), stride=(1,), padding=(9,), dilation=(3,))
              )
              (2): Sequential(
                (0): LeakyReLU(negative_slope=0.1)
                (1): Conv1d(256, 256, kernel_size=(7,), stride=(1,), padding=(15,), dilation=(5,))
              )
            )
            (convs2): ModuleList(
              (0-2): 3 x Sequential(
                (0): LeakyReLU(negative_slope=0.1)
                (1): Conv1d(256, 256, kernel_size=(7,), stride=(1,), padding=(3,))
              )
            )
          )
          (2): ResidualBlock(
            (convs1): ModuleList(
              (0): Sequential(
                (0): LeakyReLU(negative_slope=0.1)
                (1): Conv1d(256, 256, kernel_size=(11,), stride=(1,), padding=(5,))
              )
              (1): Sequential(
                (0): LeakyReLU(negative_slope=0.1)
                (1): Conv1d(256, 256, kernel_size=(11,), stride=(1,), padding=(15,), dilation=(3,))
              )
              (2): Sequential(
                (0): LeakyReLU(negative_slope=0.1)
                (1): Conv1d(256, 256, kernel_size=(11,), stride=(1,), padding=(25,), dilation=(5,))
              )
            )
            (convs2): ModuleList(
              (0-2): 3 x Sequential(
                (0): LeakyReLU(negative_slope=0.1)
                (1): Conv1d(256, 256, kernel_size=(11,), stride=(1,), padding=(5,))
              )
            )
          )
          (3): ResidualBlock(
            (convs1): ModuleList(
              (0): Sequential(
                (0): LeakyReLU(negative_slope=0.1)
                (1): Conv1d(128, 128, kernel_size=(3,), stride=(1,), padding=(1,))
              )
              (1): Sequential(
                (0): LeakyReLU(negative_slope=0.1)
                (1): Conv1d(128, 128, kernel_size=(3,), stride=(1,), padding=(3,), dilation=(3,))
              )
              (2): Sequential(
                (0): LeakyReLU(negative_slope=0.1)
                (1): Conv1d(128, 128, kernel_size=(3,), stride=(1,), padding=(5,), dilation=(5,))
              )
            )
            (convs2): ModuleList(
              (0-2): 3 x Sequential(
                (0): LeakyReLU(negative_slope=0.1)
                (1): Conv1d(128, 128, kernel_size=(3,), stride=(1,), padding=(1,))
              )
            )
          )
          (4): ResidualBlock(
            (convs1): ModuleList(
              (0): Sequential(
                (0): LeakyReLU(negative_slope=0.1)
                (1): Conv1d(128, 128, kernel_size=(7,), stride=(1,), padding=(3,))
              )
              (1): Sequential(
                (0): LeakyReLU(negative_slope=0.1)
                (1): Conv1d(128, 128, kernel_size=(7,), stride=(1,), padding=(9,), dilation=(3,))
              )
              (2): Sequential(
                (0): LeakyReLU(negative_slope=0.1)
                (1): Conv1d(128, 128, kernel_size=(7,), stride=(1,), padding=(15,), dilation=(5,))
              )
            )
            (convs2): ModuleList(
              (0-2): 3 x Sequential(
                (0): LeakyReLU(negative_slope=0.1)
                (1): Conv1d(128, 128, kernel_size=(7,), stride=(1,), padding=(3,))
              )
            )
          )
          (5): ResidualBlock(
            (convs1): ModuleList(
              (0): Sequential(
                (0): LeakyReLU(negative_slope=0.1)
                (1): Conv1d(128, 128, kernel_size=(11,), stride=(1,), padding=(5,))
              )
              (1): Sequential(
                (0): LeakyReLU(negative_slope=0.1)
                (1): Conv1d(128, 128, kernel_size=(11,), stride=(1,), padding=(15,), dilation=(3,))
              )
              (2): Sequential(
                (0): LeakyReLU(negative_slope=0.1)
                (1): Conv1d(128, 128, kernel_size=(11,), stride=(1,), padding=(25,), dilation=(5,))
              )
            )
            (convs2): ModuleList(
              (0-2): 3 x Sequential(
                (0): LeakyReLU(negative_slope=0.1)
                (1): Conv1d(128, 128, kernel_size=(11,), stride=(1,), padding=(5,))
              )
            )
          )
          (6): ResidualBlock(
            (convs1): ModuleList(
              (0): Sequential(
                (0): LeakyReLU(negative_slope=0.1)
                (1): Conv1d(64, 64, kernel_size=(3,), stride=(1,), padding=(1,))
              )
              (1): Sequential(
                (0): LeakyReLU(negative_slope=0.1)
                (1): Conv1d(64, 64, kernel_size=(3,), stride=(1,), padding=(3,), dilation=(3,))
              )
              (2): Sequential(
                (0): LeakyReLU(negative_slope=0.1)
                (1): Conv1d(64, 64, kernel_size=(3,), stride=(1,), padding=(5,), dilation=(5,))
              )
            )
            (convs2): ModuleList(
              (0-2): 3 x Sequential(
                (0): LeakyReLU(negative_slope=0.1)
                (1): Conv1d(64, 64, kernel_size=(3,), stride=(1,), padding=(1,))
              )
            )
          )
          (7): ResidualBlock(
            (convs1): ModuleList(
              (0): Sequential(
                (0): LeakyReLU(negative_slope=0.1)
                (1): Conv1d(64, 64, kernel_size=(7,), stride=(1,), padding=(3,))
              )
              (1): Sequential(
                (0): LeakyReLU(negative_slope=0.1)
                (1): Conv1d(64, 64, kernel_size=(7,), stride=(1,), padding=(9,), dilation=(3,))
              )
              (2): Sequential(
                (0): LeakyReLU(negative_slope=0.1)
                (1): Conv1d(64, 64, kernel_size=(7,), stride=(1,), padding=(15,), dilation=(5,))
              )
            )
            (convs2): ModuleList(
              (0-2): 3 x Sequential(
                (0): LeakyReLU(negative_slope=0.1)
                (1): Conv1d(64, 64, kernel_size=(7,), stride=(1,), padding=(3,))
              )
            )
          )
          (8): ResidualBlock(
            (convs1): ModuleList(
              (0): Sequential(
                (0): LeakyReLU(negative_slope=0.1)
                (1): Conv1d(64, 64, kernel_size=(11,), stride=(1,), padding=(5,))
              )
              (1): Sequential(
                (0): LeakyReLU(negative_slope=0.1)
                (1): Conv1d(64, 64, kernel_size=(11,), stride=(1,), padding=(15,), dilation=(3,))
              )
              (2): Sequential(
                (0): LeakyReLU(negative_slope=0.1)
                (1): Conv1d(64, 64, kernel_size=(11,), stride=(1,), padding=(25,), dilation=(5,))
              )
            )
            (convs2): ModuleList(
              (0-2): 3 x Sequential(
                (0): LeakyReLU(negative_slope=0.1)
                (1): Conv1d(64, 64, kernel_size=(11,), stride=(1,), padding=(5,))
              )
            )
          )
          (9): ResidualBlock(
            (convs1): ModuleList(
              (0): Sequential(
                (0): LeakyReLU(negative_slope=0.1)
                (1): Conv1d(32, 32, kernel_size=(3,), stride=(1,), padding=(1,))
              )
              (1): Sequential(
                (0): LeakyReLU(negative_slope=0.1)
                (1): Conv1d(32, 32, kernel_size=(3,), stride=(1,), padding=(3,), dilation=(3,))
              )
              (2): Sequential(
                (0): LeakyReLU(negative_slope=0.1)
                (1): Conv1d(32, 32, kernel_size=(3,), stride=(1,), padding=(5,), dilation=(5,))
              )
            )
            (convs2): ModuleList(
              (0-2): 3 x Sequential(
                (0): LeakyReLU(negative_slope=0.1)
                (1): Conv1d(32, 32, kernel_size=(3,), stride=(1,), padding=(1,))
              )
            )
          )
          (10): ResidualBlock(
            (convs1): ModuleList(
              (0): Sequential(
                (0): LeakyReLU(negative_slope=0.1)
                (1): Conv1d(32, 32, kernel_size=(7,), stride=(1,), padding=(3,))
              )
              (1): Sequential(
                (0): LeakyReLU(negative_slope=0.1)
                (1): Conv1d(32, 32, kernel_size=(7,), stride=(1,), padding=(9,), dilation=(3,))
              )
              (2): Sequential(
                (0): LeakyReLU(negative_slope=0.1)
                (1): Conv1d(32, 32, kernel_size=(7,), stride=(1,), padding=(15,), dilation=(5,))
              )
            )
            (convs2): ModuleList(
              (0-2): 3 x Sequential(
                (0): LeakyReLU(negative_slope=0.1)
                (1): Conv1d(32, 32, kernel_size=(7,), stride=(1,), padding=(3,))
              )
            )
          )
          (11): ResidualBlock(
            (convs1): ModuleList(
              (0): Sequential(
                (0): LeakyReLU(negative_slope=0.1)
                (1): Conv1d(32, 32, kernel_size=(11,), stride=(1,), padding=(5,))
              )
              (1): Sequential(
                (0): LeakyReLU(negative_slope=0.1)
                (1): Conv1d(32, 32, kernel_size=(11,), stride=(1,), padding=(15,), dilation=(3,))
              )
              (2): Sequential(
                (0): LeakyReLU(negative_slope=0.1)
                (1): Conv1d(32, 32, kernel_size=(11,), stride=(1,), padding=(25,), dilation=(5,))
              )
            )
            (convs2): ModuleList(
              (0-2): 3 x Sequential(
                (0): LeakyReLU(negative_slope=0.1)
                (1): Conv1d(32, 32, kernel_size=(11,), stride=(1,), padding=(5,))
              )
            )
          )
        )
        (output_conv): Sequential(
          (0): LeakyReLU(negative_slope=0.01)
          (1): Conv1d(32, 1, kernel_size=(7,), stride=(1,), padding=(3,))
          (2): Tanh()
        )
        (global_conv): Conv1d(256, 512, kernel_size=(1,), stride=(1,))
      )
      (posterior_encoder): PosteriorEncoder(
        (input_conv): Conv1d(513, 192, kernel_size=(1,), stride=(1,))
        (encoder): WaveNet(
          (conv_layers): ModuleList(
            (0-15): 16 x ResidualBlock(
              (conv): Conv1d(192, 384, kernel_size=(5,), stride=(1,), padding=(2,))
              (conv1x1_glo): Conv1d1x1(256, 384, kernel_size=(1,), stride=(1,), bias=False)
              (conv1x1_out): Conv1d1x1(192, 384, kernel_size=(1,), stride=(1,))
            )
          )
        )
        (proj): Conv1d(192, 384, kernel_size=(1,), stride=(1,))
      )
      (flow): ResidualAffineCouplingBlock(
        (flows): ModuleList(
          (0): ResidualAffineCouplingLayer(
            (input_conv): Conv1d(96, 192, kernel_size=(1,), stride=(1,))
            (encoder): WaveNet(
              (conv_layers): ModuleList(
                (0-3): 4 x ResidualBlock(
                  (conv): Conv1d(192, 384, kernel_size=(5,), stride=(1,), padding=(2,))
                  (conv1x1_glo): Conv1d1x1(256, 384, kernel_size=(1,), stride=(1,), bias=False)
                  (conv1x1_out): Conv1d1x1(192, 384, kernel_size=(1,), stride=(1,))
                )
              )
            )
            (proj): Conv1d(192, 96, kernel_size=(1,), stride=(1,))
          )
          (1): FlipFlow()
          (2): ResidualAffineCouplingLayer(
            (input_conv): Conv1d(96, 192, kernel_size=(1,), stride=(1,))
            (encoder): WaveNet(
              (conv_layers): ModuleList(
                (0-3): 4 x ResidualBlock(
                  (conv): Conv1d(192, 384, kernel_size=(5,), stride=(1,), padding=(2,))
                  (conv1x1_glo): Conv1d1x1(256, 384, kernel_size=(1,), stride=(1,), bias=False)
                  (conv1x1_out): Conv1d1x1(192, 384, kernel_size=(1,), stride=(1,))
                )
              )
            )
            (proj): Conv1d(192, 96, kernel_size=(1,), stride=(1,))
          )
          (3): FlipFlow()
          (4): ResidualAffineCouplingLayer(
            (input_conv): Conv1d(96, 192, kernel_size=(1,), stride=(1,))
            (encoder): WaveNet(
              (conv_layers): ModuleList(
                (0-3): 4 x ResidualBlock(
                  (conv): Conv1d(192, 384, kernel_size=(5,), stride=(1,), padding=(2,))
                  (conv1x1_glo): Conv1d1x1(256, 384, kernel_size=(1,), stride=(1,), bias=False)
                  (conv1x1_out): Conv1d1x1(192, 384, kernel_size=(1,), stride=(1,))
                )
              )
            )
            (proj): Conv1d(192, 96, kernel_size=(1,), stride=(1,))
          )
          (5): FlipFlow()
          (6): ResidualAffineCouplingLayer(
            (input_conv): Conv1d(96, 192, kernel_size=(1,), stride=(1,))
            (encoder): WaveNet(
              (conv_layers): ModuleList(
                (0-3): 4 x ResidualBlock(
                  (conv): Conv1d(192, 384, kernel_size=(5,), stride=(1,), padding=(2,))
                  (conv1x1_glo): Conv1d1x1(256, 384, kernel_size=(1,), stride=(1,), bias=False)
                  (conv1x1_out): Conv1d1x1(192, 384, kernel_size=(1,), stride=(1,))
                )
              )
            )
            (proj): Conv1d(192, 96, kernel_size=(1,), stride=(1,))
          )
          (7): FlipFlow()
        )
      )
      (duration_predictor): StochasticDurationPredictor(
        (pre): Conv1d(192, 192, kernel_size=(1,), stride=(1,))
        (dds): DilatedDepthSeparableConv(
          (convs): ModuleList(
            (0): Sequential(
              (0): Conv1d(192, 192, kernel_size=(3,), stride=(1,), padding=(1,), groups=192)
              (1): Transpose()
              (2): LayerNorm((192,), eps=1e-05, elementwise_affine=True)
              (3): Transpose()
              (4): GELU(approximate='none')
              (5): Conv1d(192, 192, kernel_size=(1,), stride=(1,))
              (6): Transpose()
              (7): LayerNorm((192,), eps=1e-05, elementwise_affine=True)
              (8): Transpose()
              (9): GELU(approximate='none')
              (10): Dropout(p=0.5, inplace=False)
            )
            (1): Sequential(
              (0): Conv1d(192, 192, kernel_size=(3,), stride=(1,), padding=(3,), dilation=(3,), groups=192)
              (1): Transpose()
              (2): LayerNorm((192,), eps=1e-05, elementwise_affine=True)
              (3): Transpose()
              (4): GELU(approximate='none')
              (5): Conv1d(192, 192, kernel_size=(1,), stride=(1,))
              (6): Transpose()
              (7): LayerNorm((192,), eps=1e-05, elementwise_affine=True)
              (8): Transpose()
              (9): GELU(approximate='none')
              (10): Dropout(p=0.5, inplace=False)
            )
            (2): Sequential(
              (0): Conv1d(192, 192, kernel_size=(3,), stride=(1,), padding=(9,), dilation=(9,), groups=192)
              (1): Transpose()
              (2): LayerNorm((192,), eps=1e-05, elementwise_affine=True)
              (3): Transpose()
              (4): GELU(approximate='none')
              (5): Conv1d(192, 192, kernel_size=(1,), stride=(1,))
              (6): Transpose()
              (7): LayerNorm((192,), eps=1e-05, elementwise_affine=True)
              (8): Transpose()
              (9): GELU(approximate='none')
              (10): Dropout(p=0.5, inplace=False)
            )
          )
        )
        (proj): Conv1d(192, 192, kernel_size=(1,), stride=(1,))
        (log_flow): LogFlow()
        (flows): ModuleList(
          (0): ElementwiseAffineFlow()
          (1): ConvFlow(
            (input_conv): Conv1d(1, 192, kernel_size=(1,), stride=(1,))
            (dds_conv): DilatedDepthSeparableConv(
              (convs): ModuleList(
                (0): Sequential(
                  (0): Conv1d(192, 192, kernel_size=(3,), stride=(1,), padding=(1,), groups=192)
                  (1): Transpose()
                  (2): LayerNorm((192,), eps=1e-05, elementwise_affine=True)
                  (3): Transpose()
                  (4): GELU(approximate='none')
                  (5): Conv1d(192, 192, kernel_size=(1,), stride=(1,))
                  (6): Transpose()
                  (7): LayerNorm((192,), eps=1e-05, elementwise_affine=True)
                  (8): Transpose()
                  (9): GELU(approximate='none')
                  (10): Dropout(p=0.0, inplace=False)
                )
                (1): Sequential(
                  (0): Conv1d(192, 192, kernel_size=(3,), stride=(1,), padding=(3,), dilation=(3,), groups=192)
                  (1): Transpose()
                  (2): LayerNorm((192,), eps=1e-05, elementwise_affine=True)
                  (3): Transpose()
                  (4): GELU(approximate='none')
                  (5): Conv1d(192, 192, kernel_size=(1,), stride=(1,))
                  (6): Transpose()
                  (7): LayerNorm((192,), eps=1e-05, elementwise_affine=True)
                  (8): Transpose()
                  (9): GELU(approximate='none')
                  (10): Dropout(p=0.0, inplace=False)
                )
                (2): Sequential(
                  (0): Conv1d(192, 192, kernel_size=(3,), stride=(1,), padding=(9,), dilation=(9,), groups=192)
                  (1): Transpose()
                  (2): LayerNorm((192,), eps=1e-05, elementwise_affine=True)
                  (3): Transpose()
                  (4): GELU(approximate='none')
                  (5): Conv1d(192, 192, kernel_size=(1,), stride=(1,))
                  (6): Transpose()
                  (7): LayerNorm((192,), eps=1e-05, elementwise_affine=True)
                  (8): Transpose()
                  (9): GELU(approximate='none')
                  (10): Dropout(p=0.0, inplace=False)
                )
              )
            )
            (proj): Conv1d(192, 29, kernel_size=(1,), stride=(1,))
          )
          (2): FlipFlow()
          (3): ConvFlow(
            (input_conv): Conv1d(1, 192, kernel_size=(1,), stride=(1,))
            (dds_conv): DilatedDepthSeparableConv(
              (convs): ModuleList(
                (0): Sequential(
                  (0): Conv1d(192, 192, kernel_size=(3,), stride=(1,), padding=(1,), groups=192)
                  (1): Transpose()
                  (2): LayerNorm((192,), eps=1e-05, elementwise_affine=True)
                  (3): Transpose()
                  (4): GELU(approximate='none')
                  (5): Conv1d(192, 192, kernel_size=(1,), stride=(1,))
                  (6): Transpose()
                  (7): LayerNorm((192,), eps=1e-05, elementwise_affine=True)
                  (8): Transpose()
                  (9): GELU(approximate='none')
                  (10): Dropout(p=0.0, inplace=False)
                )
                (1): Sequential(
                  (0): Conv1d(192, 192, kernel_size=(3,), stride=(1,), padding=(3,), dilation=(3,), groups=192)
                  (1): Transpose()
                  (2): LayerNorm((192,), eps=1e-05, elementwise_affine=True)
                  (3): Transpose()
                  (4): GELU(approximate='none')
                  (5): Conv1d(192, 192, kernel_size=(1,), stride=(1,))
                  (6): Transpose()
                  (7): LayerNorm((192,), eps=1e-05, elementwise_affine=True)
                  (8): Transpose()
                  (9): GELU(approximate='none')
                  (10): Dropout(p=0.0, inplace=False)
                )
                (2): Sequential(
                  (0): Conv1d(192, 192, kernel_size=(3,), stride=(1,), padding=(9,), dilation=(9,), groups=192)
                  (1): Transpose()
                  (2): LayerNorm((192,), eps=1e-05, elementwise_affine=True)
                  (3): Transpose()
                  (4): GELU(approximate='none')
                  (5): Conv1d(192, 192, kernel_size=(1,), stride=(1,))
                  (6): Transpose()
                  (7): LayerNorm((192,), eps=1e-05, elementwise_affine=True)
                  (8): Transpose()
                  (9): GELU(approximate='none')
                  (10): Dropout(p=0.0, inplace=False)
                )
              )
            )
            (proj): Conv1d(192, 29, kernel_size=(1,), stride=(1,))
          )
          (4): FlipFlow()
          (5): ConvFlow(
            (input_conv): Conv1d(1, 192, kernel_size=(1,), stride=(1,))
            (dds_conv): DilatedDepthSeparableConv(
              (convs): ModuleList(
                (0): Sequential(
                  (0): Conv1d(192, 192, kernel_size=(3,), stride=(1,), padding=(1,), groups=192)
                  (1): Transpose()
                  (2): LayerNorm((192,), eps=1e-05, elementwise_affine=True)
                  (3): Transpose()
                  (4): GELU(approximate='none')
                  (5): Conv1d(192, 192, kernel_size=(1,), stride=(1,))
                  (6): Transpose()
                  (7): LayerNorm((192,), eps=1e-05, elementwise_affine=True)
                  (8): Transpose()
                  (9): GELU(approximate='none')
                  (10): Dropout(p=0.0, inplace=False)
                )
                (1): Sequential(
                  (0): Conv1d(192, 192, kernel_size=(3,), stride=(1,), padding=(3,), dilation=(3,), groups=192)
                  (1): Transpose()
                  (2): LayerNorm((192,), eps=1e-05, elementwise_affine=True)
                  (3): Transpose()
                  (4): GELU(approximate='none')
                  (5): Conv1d(192, 192, kernel_size=(1,), stride=(1,))
                  (6): Transpose()
                  (7): LayerNorm((192,), eps=1e-05, elementwise_affine=True)
                  (8): Transpose()
                  (9): GELU(approximate='none')
                  (10): Dropout(p=0.0, inplace=False)
                )
                (2): Sequential(
                  (0): Conv1d(192, 192, kernel_size=(3,), stride=(1,), padding=(9,), dilation=(9,), groups=192)
                  (1): Transpose()
                  (2): LayerNorm((192,), eps=1e-05, elementwise_affine=True)
                  (3): Transpose()
                  (4): GELU(approximate='none')
                  (5): Conv1d(192, 192, kernel_size=(1,), stride=(1,))
                  (6): Transpose()
                  (7): LayerNorm((192,), eps=1e-05, elementwise_affine=True)
                  (8): Transpose()
                  (9): GELU(approximate='none')
                  (10): Dropout(p=0.0, inplace=False)
                )
              )
            )
            (proj): Conv1d(192, 29, kernel_size=(1,), stride=(1,))
          )
          (6): FlipFlow()
          (7): ConvFlow(
            (input_conv): Conv1d(1, 192, kernel_size=(1,), stride=(1,))
            (dds_conv): DilatedDepthSeparableConv(
              (convs): ModuleList(
                (0): Sequential(
                  (0): Conv1d(192, 192, kernel_size=(3,), stride=(1,), padding=(1,), groups=192)
                  (1): Transpose()
                  (2): LayerNorm((192,), eps=1e-05, elementwise_affine=True)
                  (3): Transpose()
                  (4): GELU(approximate='none')
                  (5): Conv1d(192, 192, kernel_size=(1,), stride=(1,))
                  (6): Transpose()
                  (7): LayerNorm((192,), eps=1e-05, elementwise_affine=True)
                  (8): Transpose()
                  (9): GELU(approximate='none')
                  (10): Dropout(p=0.0, inplace=False)
                )
                (1): Sequential(
                  (0): Conv1d(192, 192, kernel_size=(3,), stride=(1,), padding=(3,), dilation=(3,), groups=192)
                  (1): Transpose()
                  (2): LayerNorm((192,), eps=1e-05, elementwise_affine=True)
                  (3): Transpose()
                  (4): GELU(approximate='none')
                  (5): Conv1d(192, 192, kernel_size=(1,), stride=(1,))
                  (6): Transpose()
                  (7): LayerNorm((192,), eps=1e-05, elementwise_affine=True)
                  (8): Transpose()
                  (9): GELU(approximate='none')
                  (10): Dropout(p=0.0, inplace=False)
                )
                (2): Sequential(
                  (0): Conv1d(192, 192, kernel_size=(3,), stride=(1,), padding=(9,), dilation=(9,), groups=192)
                  (1): Transpose()
                  (2): LayerNorm((192,), eps=1e-05, elementwise_affine=True)
                  (3): Transpose()
                  (4): GELU(approximate='none')
                  (5): Conv1d(192, 192, kernel_size=(1,), stride=(1,))
                  (6): Transpose()
                  (7): LayerNorm((192,), eps=1e-05, elementwise_affine=True)
                  (8): Transpose()
                  (9): GELU(approximate='none')
                  (10): Dropout(p=0.0, inplace=False)
                )
              )
            )
            (proj): Conv1d(192, 29, kernel_size=(1,), stride=(1,))
          )
          (8): FlipFlow()
        )
        (post_pre): Conv1d(1, 192, kernel_size=(1,), stride=(1,))
        (post_dds): DilatedDepthSeparableConv(
          (convs): ModuleList(
            (0): Sequential(
              (0): Conv1d(192, 192, kernel_size=(3,), stride=(1,), padding=(1,), groups=192)
              (1): Transpose()
              (2): LayerNorm((192,), eps=1e-05, elementwise_affine=True)
              (3): Transpose()
              (4): GELU(approximate='none')
              (5): Conv1d(192, 192, kernel_size=(1,), stride=(1,))
              (6): Transpose()
              (7): LayerNorm((192,), eps=1e-05, elementwise_affine=True)
              (8): Transpose()
              (9): GELU(approximate='none')
              (10): Dropout(p=0.5, inplace=False)
            )
            (1): Sequential(
              (0): Conv1d(192, 192, kernel_size=(3,), stride=(1,), padding=(3,), dilation=(3,), groups=192)
              (1): Transpose()
              (2): LayerNorm((192,), eps=1e-05, elementwise_affine=True)
              (3): Transpose()
              (4): GELU(approximate='none')
              (5): Conv1d(192, 192, kernel_size=(1,), stride=(1,))
              (6): Transpose()
              (7): LayerNorm((192,), eps=1e-05, elementwise_affine=True)
              (8): Transpose()
              (9): GELU(approximate='none')
              (10): Dropout(p=0.5, inplace=False)
            )
            (2): Sequential(
              (0): Conv1d(192, 192, kernel_size=(3,), stride=(1,), padding=(9,), dilation=(9,), groups=192)
              (1): Transpose()
              (2): LayerNorm((192,), eps=1e-05, elementwise_affine=True)
              (3): Transpose()
              (4): GELU(approximate='none')
              (5): Conv1d(192, 192, kernel_size=(1,), stride=(1,))
              (6): Transpose()
              (7): LayerNorm((192,), eps=1e-05, elementwise_affine=True)
              (8): Transpose()
              (9): GELU(approximate='none')
              (10): Dropout(p=0.5, inplace=False)
            )
          )
        )
        (post_proj): Conv1d(192, 192, kernel_size=(1,), stride=(1,))
        (post_flows): ModuleList(
          (0): ElementwiseAffineFlow()
          (1): ConvFlow(
            (input_conv): Conv1d(1, 192, kernel_size=(1,), stride=(1,))
            (dds_conv): DilatedDepthSeparableConv(
              (convs): ModuleList(
                (0): Sequential(
                  (0): Conv1d(192, 192, kernel_size=(3,), stride=(1,), padding=(1,), groups=192)
                  (1): Transpose()
                  (2): LayerNorm((192,), eps=1e-05, elementwise_affine=True)
                  (3): Transpose()
                  (4): GELU(approximate='none')
                  (5): Conv1d(192, 192, kernel_size=(1,), stride=(1,))
                  (6): Transpose()
                  (7): LayerNorm((192,), eps=1e-05, elementwise_affine=True)
                  (8): Transpose()
                  (9): GELU(approximate='none')
                  (10): Dropout(p=0.0, inplace=False)
                )
                (1): Sequential(
                  (0): Conv1d(192, 192, kernel_size=(3,), stride=(1,), padding=(3,), dilation=(3,), groups=192)
                  (1): Transpose()
                  (2): LayerNorm((192,), eps=1e-05, elementwise_affine=True)
                  (3): Transpose()
                  (4): GELU(approximate='none')
                  (5): Conv1d(192, 192, kernel_size=(1,), stride=(1,))
                  (6): Transpose()
                  (7): LayerNorm((192,), eps=1e-05, elementwise_affine=True)
                  (8): Transpose()
                  (9): GELU(approximate='none')
                  (10): Dropout(p=0.0, inplace=False)
                )
                (2): Sequential(
                  (0): Conv1d(192, 192, kernel_size=(3,), stride=(1,), padding=(9,), dilation=(9,), groups=192)
                  (1): Transpose()
                  (2): LayerNorm((192,), eps=1e-05, elementwise_affine=True)
                  (3): Transpose()
                  (4): GELU(approximate='none')
                  (5): Conv1d(192, 192, kernel_size=(1,), stride=(1,))
                  (6): Transpose()
                  (7): LayerNorm((192,), eps=1e-05, elementwise_affine=True)
                  (8): Transpose()
                  (9): GELU(approximate='none')
                  (10): Dropout(p=0.0, inplace=False)
                )
              )
            )
            (proj): Conv1d(192, 29, kernel_size=(1,), stride=(1,))
          )
          (2): FlipFlow()
          (3): ConvFlow(
            (input_conv): Conv1d(1, 192, kernel_size=(1,), stride=(1,))
            (dds_conv): DilatedDepthSeparableConv(
              (convs): ModuleList(
                (0): Sequential(
                  (0): Conv1d(192, 192, kernel_size=(3,), stride=(1,), padding=(1,), groups=192)
                  (1): Transpose()
                  (2): LayerNorm((192,), eps=1e-05, elementwise_affine=True)
                  (3): Transpose()
                  (4): GELU(approximate='none')
                  (5): Conv1d(192, 192, kernel_size=(1,), stride=(1,))
                  (6): Transpose()
                  (7): LayerNorm((192,), eps=1e-05, elementwise_affine=True)
                  (8): Transpose()
                  (9): GELU(approximate='none')
                  (10): Dropout(p=0.0, inplace=False)
                )
                (1): Sequential(
                  (0): Conv1d(192, 192, kernel_size=(3,), stride=(1,), padding=(3,), dilation=(3,), groups=192)
                  (1): Transpose()
                  (2): LayerNorm((192,), eps=1e-05, elementwise_affine=True)
                  (3): Transpose()
                  (4): GELU(approximate='none')
                  (5): Conv1d(192, 192, kernel_size=(1,), stride=(1,))
                  (6): Transpose()
                  (7): LayerNorm((192,), eps=1e-05, elementwise_affine=True)
                  (8): Transpose()
                  (9): GELU(approximate='none')
                  (10): Dropout(p=0.0, inplace=False)
                )
                (2): Sequential(
                  (0): Conv1d(192, 192, kernel_size=(3,), stride=(1,), padding=(9,), dilation=(9,), groups=192)
                  (1): Transpose()
                  (2): LayerNorm((192,), eps=1e-05, elementwise_affine=True)
                  (3): Transpose()
                  (4): GELU(approximate='none')
                  (5): Conv1d(192, 192, kernel_size=(1,), stride=(1,))
                  (6): Transpose()
                  (7): LayerNorm((192,), eps=1e-05, elementwise_affine=True)
                  (8): Transpose()
                  (9): GELU(approximate='none')
                  (10): Dropout(p=0.0, inplace=False)
                )
              )
            )
            (proj): Conv1d(192, 29, kernel_size=(1,), stride=(1,))
          )
          (4): FlipFlow()
          (5): ConvFlow(
            (input_conv): Conv1d(1, 192, kernel_size=(1,), stride=(1,))
            (dds_conv): DilatedDepthSeparableConv(
              (convs): ModuleList(
                (0): Sequential(
                  (0): Conv1d(192, 192, kernel_size=(3,), stride=(1,), padding=(1,), groups=192)
                  (1): Transpose()
                  (2): LayerNorm((192,), eps=1e-05, elementwise_affine=True)
                  (3): Transpose()
                  (4): GELU(approximate='none')
                  (5): Conv1d(192, 192, kernel_size=(1,), stride=(1,))
                  (6): Transpose()
                  (7): LayerNorm((192,), eps=1e-05, elementwise_affine=True)
                  (8): Transpose()
                  (9): GELU(approximate='none')
                  (10): Dropout(p=0.0, inplace=False)
                )
                (1): Sequential(
                  (0): Conv1d(192, 192, kernel_size=(3,), stride=(1,), padding=(3,), dilation=(3,), groups=192)
                  (1): Transpose()
                  (2): LayerNorm((192,), eps=1e-05, elementwise_affine=True)
                  (3): Transpose()
                  (4): GELU(approximate='none')
                  (5): Conv1d(192, 192, kernel_size=(1,), stride=(1,))
                  (6): Transpose()
                  (7): LayerNorm((192,), eps=1e-05, elementwise_affine=True)
                  (8): Transpose()
                  (9): GELU(approximate='none')
                  (10): Dropout(p=0.0, inplace=False)
                )
                (2): Sequential(
                  (0): Conv1d(192, 192, kernel_size=(3,), stride=(1,), padding=(9,), dilation=(9,), groups=192)
                  (1): Transpose()
                  (2): LayerNorm((192,), eps=1e-05, elementwise_affine=True)
                  (3): Transpose()
                  (4): GELU(approximate='none')
                  (5): Conv1d(192, 192, kernel_size=(1,), stride=(1,))
                  (6): Transpose()
                  (7): LayerNorm((192,), eps=1e-05, elementwise_affine=True)
                  (8): Transpose()
                  (9): GELU(approximate='none')
                  (10): Dropout(p=0.0, inplace=False)
                )
              )
            )
            (proj): Conv1d(192, 29, kernel_size=(1,), stride=(1,))
          )
          (6): FlipFlow()
          (7): ConvFlow(
            (input_conv): Conv1d(1, 192, kernel_size=(1,), stride=(1,))
            (dds_conv): DilatedDepthSeparableConv(
              (convs): ModuleList(
                (0): Sequential(
                  (0): Conv1d(192, 192, kernel_size=(3,), stride=(1,), padding=(1,), groups=192)
                  (1): Transpose()
                  (2): LayerNorm((192,), eps=1e-05, elementwise_affine=True)
                  (3): Transpose()
                  (4): GELU(approximate='none')
                  (5): Conv1d(192, 192, kernel_size=(1,), stride=(1,))
                  (6): Transpose()
                  (7): LayerNorm((192,), eps=1e-05, elementwise_affine=True)
                  (8): Transpose()
                  (9): GELU(approximate='none')
                  (10): Dropout(p=0.0, inplace=False)
                )
                (1): Sequential(
                  (0): Conv1d(192, 192, kernel_size=(3,), stride=(1,), padding=(3,), dilation=(3,), groups=192)
                  (1): Transpose()
                  (2): LayerNorm((192,), eps=1e-05, elementwise_affine=True)
                  (3): Transpose()
                  (4): GELU(approximate='none')
                  (5): Conv1d(192, 192, kernel_size=(1,), stride=(1,))
                  (6): Transpose()
                  (7): LayerNorm((192,), eps=1e-05, elementwise_affine=True)
                  (8): Transpose()
                  (9): GELU(approximate='none')
                  (10): Dropout(p=0.0, inplace=False)
                )
                (2): Sequential(
                  (0): Conv1d(192, 192, kernel_size=(3,), stride=(1,), padding=(9,), dilation=(9,), groups=192)
                  (1): Transpose()
                  (2): LayerNorm((192,), eps=1e-05, elementwise_affine=True)
                  (3): Transpose()
                  (4): GELU(approximate='none')
                  (5): Conv1d(192, 192, kernel_size=(1,), stride=(1,))
                  (6): Transpose()
                  (7): LayerNorm((192,), eps=1e-05, elementwise_affine=True)
                  (8): Transpose()
                  (9): GELU(approximate='none')
                  (10): Dropout(p=0.0, inplace=False)
                )
              )
            )
            (proj): Conv1d(192, 29, kernel_size=(1,), stride=(1,))
          )
          (8): FlipFlow()
        )
        (global_conv): Conv1d(256, 192, kernel_size=(1,), stride=(1,))
      )
      (global_emb): Embedding(128, 256)
    )
    (discriminator): HiFiGANMultiScaleMultiPeriodDiscriminator(
      (msd): HiFiGANMultiScaleDiscriminator(
        (discriminators): ModuleList(
          (0): HiFiGANScaleDiscriminator(
            (layers): ModuleList(
              (0): Sequential(
                (0): Conv1d(1, 128, kernel_size=(15,), stride=(1,), padding=(7,))
                (1): LeakyReLU(negative_slope=0.1)
              )
              (1): Sequential(
                (0): Conv1d(128, 128, kernel_size=(41,), stride=(2,), padding=(20,), groups=4)
                (1): LeakyReLU(negative_slope=0.1)
              )
              (2): Sequential(
                (0): Conv1d(128, 256, kernel_size=(41,), stride=(2,), padding=(20,), groups=16)
                (1): LeakyReLU(negative_slope=0.1)
              )
              (3): Sequential(
                (0): Conv1d(256, 512, kernel_size=(41,), stride=(4,), padding=(20,), groups=16)
                (1): LeakyReLU(negative_slope=0.1)
              )
              (4): Sequential(
                (0): Conv1d(512, 1024, kernel_size=(41,), stride=(4,), padding=(20,), groups=16)
                (1): LeakyReLU(negative_slope=0.1)
              )
              (5): Sequential(
                (0): Conv1d(1024, 1024, kernel_size=(41,), stride=(1,), padding=(20,), groups=16)
                (1): LeakyReLU(negative_slope=0.1)
              )
              (6): Sequential(
                (0): Conv1d(1024, 1024, kernel_size=(5,), stride=(1,), padding=(2,))
                (1): LeakyReLU(negative_slope=0.1)
              )
              (7): Conv1d(1024, 1, kernel_size=(3,), stride=(1,), padding=(1,))
            )
          )
        )
      )
      (mpd): HiFiGANMultiPeriodDiscriminator(
        (discriminators): ModuleList(
          (0-4): 5 x HiFiGANPeriodDiscriminator(
            (convs): ModuleList(
              (0): Sequential(
                (0): Conv2d(1, 32, kernel_size=(5, 1), stride=(3, 1), padding=(2, 0))
                (1): LeakyReLU(negative_slope=0.1)
              )
              (1): Sequential(
                (0): Conv2d(32, 128, kernel_size=(5, 1), stride=(3, 1), padding=(2, 0))
                (1): LeakyReLU(negative_slope=0.1)
              )
              (2): Sequential(
                (0): Conv2d(128, 512, kernel_size=(5, 1), stride=(3, 1), padding=(2, 0))
                (1): LeakyReLU(negative_slope=0.1)
              )
              (3): Sequential(
                (0): Conv2d(512, 1024, kernel_size=(5, 1), stride=(3, 1), padding=(2, 0))
                (1): LeakyReLU(negative_slope=0.1)
              )
              (4): Sequential(
                (0): Conv2d(1024, 1024, kernel_size=(5, 1), stride=(1, 1), padding=(2, 0))
                (1): LeakyReLU(negative_slope=0.1)
              )
            )
            (output_conv): Conv2d(1024, 1, kernel_size=(2, 1), stride=(1, 1), padding=(1, 0))
          )
        )
      )
    )
    (generator_adv_loss): GeneratorAdversarialLoss()
    (discriminator_adv_loss): DiscriminatorAdversarialLoss()
    (feat_match_loss): FeatureMatchLoss()
    (mel_loss): MelSpectrogramLoss(
      (wav_to_mel): LogMelFbank(
        (stft): Stft(n_fft=1024, win_length=1024, hop_length=256, center=True, normalized=False, onesided=True)
…
